data/MF/mf_model.pt (torch, 169965 bytes, 2 tensors)

user_emb.weight f4 [943, 16]
00000000: a99d 16bf 8b01 e13e 4d3c 21bf f4f9 fabe
00000010: 6b00 03bf 9fdc 0a3f c8f8 3e3f bcae d3be
00000020: 26e0 15bf 2584 26bc 4055 123f efc6 05bf
00000030: 5f92 f43e 8b25 233f 139b 173f 375b 133f
00000040: 39ea 26bf 83f9 033f 5432 fabe 386f 1abf
00000050: 16e8 dcbe 393e 0b3f 5ac5 d73e 740e dfbe
00000060: b0fa b9be c152 a23e 9c65 b73e 9400 edbe
00000070: 5a31 283f 6a9d d43e c199 ef3e b83e 133f
00000080: 665f 92be a0e2 e53e c05b d1be 5fb0 3ebd
00000090: 61c9 b9be a7f9 d53e a37b e53e b50b c3be
000000a0: 021f b1be e37b ce3e bda7 ed3e aa91 febe
000000b0: 2b8e cf3e 986f 7c3e fd2c f43e 0757 b63e
000000c0: e70d 11bf 0287 293f ae90 12bf e493 efbe
000000d0: 563a 20bf ad9f 1b3f 4346 313f aeb9 28bf
000000e0: 57d0 14bf 0db1 423f 5886 123f da86 19bf
000000f0: d553 293f 054f 043f 8ea6 203f 3922 1b3f
00000100: 9128 22be 8fe6 b53e 0512 1cbf ad02 e8be
00000110: f1a3 0ebf c8d0 fe3e fd7c 2d3f 6e30 e0be
00000120: 0a1d 90bd c72b a33d 3871 f83e a0c0 d2be
00000130: cf56 a53e e0b7 f33e 9718 293f 8250 1d3f
00000140: 2152 17bf 614b dd3e d399 9dbe e2a6 febe
00000150: 5704 dfbe d677 123f 3b92 bb3e 4f6d 06be
00000160: e077 06bf 28fb 813d 62ae e03e 2a0b b0be
00000170: ac73 da3e d0bb 1b3f ac9f 173f 4406 0a3f
00000180: 534b 34bf 5145 b53e e214 0ebf 0e2a 61bf
00000190: b266 07bf 5f6a 243f 24ed 183f 4d04 cabe
000001a0: 756b 09bf 9d9a 0d3f 1c16 273f 7242 1ebf
000001b0: 498c 183f eb6b 903e ea37 1a3f 9e6c 2e3f
000001c0: 84e8 09bf 9888 233f aee9 11bf d191 32bf
000001d0: af42 14bf 1bba ef3e 92f4 e73e 5771 c5be
000001e0: e243 10bf c2a0 873e d322 c63e ba4a d7be
000001f0: 50c3 ed3e 358f fa3e 34cf 053f 2aea e73e
00000200: 63bd 04bf 7f5e 043f 77b5 f5be 41d7 f9be
00000210: 00fa 08bf ef0c f93e ce9b 013f e5c6 e3be
00000220: afe6 00bf 4631 d23e f60a f03e 761c f3be
00000230: 504a d33e c6f5 f03e 9c29 c33e c5ec c63e
00000240: f8dc 0bbf 75e9 f63e fe91 10bf 5143 0bbf
00000250: 5613 ebbe 0d2a de3e 98da 153f 9ff4 0fbf
00000260: 3580 16bf 85f6 c13e f8f2 183f a288 f0be
00000270: ba0f 193f b1d3 b03e 2d55 c83e ce10 1d3f
00000280: f3fc 07bf e590 cc3e 2aca e1be 2ecd 09bf
00000290: f4b0 05bf e004 d03e 5c79 e73e 8daf f9be
000002a0: 45f4 14bf fb31 fc3e 09ab ee3e c2e7 10bf
000002b0: eebe ec3e 8b12 153f 6c9e e33e a0d3 883e
000002c0: c5e6 f7be cc17 123f 7860 10bf 6a0d 30bf
000002d0: fad8 11bf cb58 fa3e cb0c f53e 1230 14bf
000002e0: ef80 1bbf 3212 143f 81f7 fb3e 8086 29bf
000002f0: e405 ee3e f9c0 083f 8c7b ea3e 1949 ef3e
00000300: 4355 3abf 4176 043f 27cd 45bf d3e2 5bbe
00000310: 3f0d 30bf 9711 de3e 51f3 483f 1144 82be
00000320: c83f b63c deda 97be 4a3d 353f 615d aebe
00000330: 021b c93e b9b1 5a3f a6c1 283f ecd5 0d3f
00000340: 6e37 efbe 0fdc 083f c6b7 d0be 8d14 08bf
00000350: a6c5 f3be b1f5 093f 98be 053f 2315 d7be
00000360: a77f 28bf bae6 153f d5b4 053f c817 05bf
00000370: 6705 d83e 6b81 e73e 8f37 0c3f cc6f 253f
00000380: 323b 47bf 54e0 cb3e 1df8 88be e128 1dbf
00000390: c48e d7be 89dd de3e 84ce a53e 1723 0fbf
000003a0: fb3c d8be 83be d03e 5a9d ac3e 5dd8 f6be
000003b0: 7989 d53e 7594 1a3f 8c29 af3e 6314 113f
000003c0: c246 0abf 173d 183f 76db 1abf 6562 41bf
000003d0: eb6a 3abf 2f87 233f 104c 253f e771 00bf
000003e0: 8cc2 16bf 5bb7 133f f27b 1f3f 9b88 1ebf
000003f0: dc5c 033f 0636 d03e 7af8 f73e 8504 163f
-0.5883432 0.4394649 -0.62982637 -0.49018824 -0.5117251 0.5424289 0.7459836 -0.4134425
-0.5854515 -0.010163342 0.5716133 -0.52256674 0.47767922 0.6372916 0.59221 0.5756106
-0.65201145 0.515526 -0.48866522 -0.60325956 -0.43145818 0.5439182 0.42142755 -0.43565714
-0.36324072 0.3170376 0.3581971 -0.46289504 0.65700305 0.41526347 0.46796992 0.57517576
-0.28588408 0.44899464 -0.40890312 -0.04655492 -0.36286452 0.41792032 0.4482089 -0.3809487
-0.3459397 0.40328893 0.46417037 -0.49720508 0.40538153 0.24651945 0.47690573 0.35613272
-0.5666184 0.6622163 -0.57252014 -0.4679252 -0.62589014 0.6079052 0.69247836 -0.65908325
-0.581304 0.7605141 0.5723624 -0.5997139 0.6614354 0.51683074 0.6275414 0.60599095
-0.15835787 0.35527465 -0.60964996 -0.4531454 -0.55718905 0.49768662 0.6776884 -0.4378695
-0.07036789 0.07967334 0.4852388 -0.41162586 0.32292792 0.47601223 0.66053146 0.6145097
-0.59109694 0.43221572 -0.3078142 -0.49736696 -0.43558 0.57214105 0.36635002 -0.13127635
-0.52526665 0.063467324 0.43883044 -0.34383518 0.42666376 0.60833454 0.59228015 0.5391581
-0.70427436 0.35404447 -0.55500615 -0.87954795 -0.52891076 0.6422481 0.5973685 -0.39456406
-0.5367959 0.55314046 0.6526811 -0.6182014 0.5958906 0.28207335 0.6024157 0.68134487
-0.53870416 0.638803 -0.5699719 -0.6975375 -0.5791425 0.46821675 0.4530378 -0.38563034
-0.5635358 0.26489836 0.38698444 -0.420492 0.46438074 0.48937383 0.5226929 0.4529584
-0.5185148 0.5170669 -0.4799001 -0.48797038 -0.5350647 0.4864268 0.50628364 -0.44487682
-0.50351995 0.41053218 0.46883363 -0.4748265 0.41267633 0.4706251 0.38117683 0.38852516
-0.54634047 0.4822499 -0.56472766 -0.5439959 -0.4591319 0.43391457 0.5853667 -0.5623264
-0.5878938 0.37883392 0.5974574 -0.46979243 0.5978962 0.34536508 0.39127484 0.61353767
-0.53120345 0.39954296 -0.4409955 -0.53828704 -0.52223134 0.4062872 0.45209777 -0.48766747
-0.58185226 0.49256882 0.46614864 -0.56603634 0.46239418 0.5823142 0.44456804 0.26723957
-0.4841825 0.5706756 -0.563972 -0.6877047 -0.56971705 0.4889587 0.47861323 -0.5788585
-0.6074361 0.57840264 0.49212268 -0.66220856 0.4648887 0.5341945 0.45797384 0.46735457
-0.7278635 0.5174294 -0.7726616 -0.21473245 -0.6877021 0.43372795 0.7849627 -0.25442556
0.02224721 -0.2965917 0.70796645 -0.34055617 0.39278418 0.85427433 0.65920484 0.55404544
-0.46721977 0.5346078 -0.40765208 -0.5315636 -0.4761173 0.5389052 0.5224395 -0.42008314
-0.6581978 0.58555186 0.5222905 -0.5198941 0.42191622 0.45215926 0.54772276 0.64623713
-0.778247 0.39819586 -0.26751795 -0.613905 -0.4210111 0.43528393 0.3238412 -0.5591292
-0.42234024 0.4077035 0.337138 -0.48211947 0.41706446 0.6038278 0.34211385 0.5667173
-0.5401422 0.59468216 -0.6049112 -0.75540763 -0.72819394 0.6387815 0.6456919 -0.501738
-0.58890605 0.57701653 0.622985 -0.61927193 0.5131357 0.40666217 0.4843176 0.58600646

item_emb.weight f4 [1682, 16]
00000000: 1b33 9ebe d497 f63e 86cd 10bf 8192 4bbf
00000010: 09f0 09bf f6ae e43e 7c42 033f e5a6 06bf
00000020: 7b3e 1ebf e8cb de3e 7281 ff3e 0b68 14bf
00000030: 24d9 dd3e 9efc 153f 5175 af3e cbf2 9a3e
00000040: 1cba adbe 7384 d13e 6de4 abbe 26de 1cbf
00000050: c0a8 bcbe 51d2 9c3e ead8 953e 70dc 0abf
00000060: ea9b 01bf 3816 f33e 5ad5 ee3e 41bf 03bf
00000070: f4c9 993e 5188 f63e 4899 833e 1590 963e
00000080: 2b37 62be c75e ae3e 22e5 ddbe dbce 85be
00000090: cdac cabe 7fff d03e 60ba d43e 43fc 20bf
000000a0: 99b2 f5be dce4 023f b017 043f 3d07 c0be
000000b0: 39b8 a43e ab8e 973e 0c3b 903e 620f 8e3e
000000c0: 3857 f2be 62d0 c43e e61e 17bf 5b9b 08bf
000000d0: 15d2 f7be d4f9 0b3f fe09 2f3f 6a37 8dbe
000000e0: 822d fabe eaa0 b3bc 4c6f e13e 7394 d4be
000000f0: d212 ec3e c739 ac3e ae74 703e 6fba ff3e
00000100: 2f70 ecbe 12e3 0f3f 95d5 d1be 6a57 20bf
00000110: 4e2d 00bf ab5a 9c3e 566c 3c3e 7a60 c7be
00000120: d632 04bf 4d58 1a3f ec8f a63e 5173 15bf
00000130: 52c9 c33e 17a2 473e 8ae4 863e 4815 e03e
00000140: bb4c 14bf 3fbd d03e 1049 bfbe 4fcb fcbe
00000150: 57e6 e5be 3339 fb3e 5ee2 ab3e 4325 0bbf
00000160: 478f e4be 0ace ec3e e20f bd3e 5d9c a3be
00000170: 8355 133f e73d 023f 8765 013f a5a0 003f
00000180: 9b88 a9be d67e ac3e f652 0ebf b15f febe
00000190: fe4d f7be 6a3d 0f3f d217 0f3f 42ef 8fbe
000001a0: c5df a5be 8d99 ea3e df25 323f b2b2 d1be
000001b0: 4c2f c03e 137e de3e 48ea 163f a708 313f
000001c0: 8463 33bf af69 e83e 87f2 12bf 51c3 3cbf
000001d0: 17e4 23bf 09a6 d83e b216 ff3e 4cb9 f1be
000001e0: dc70 c5be c3a9 ad3d 2da2 133f 21ac f5be
000001f0: 4592 3c3f dac3 a93e f5b3 0a3f a041 163f
00000200: 05a1 20bf 0cd2 013f 5218 1bbf 22ce 9bbe
00000210: 0a7b b8be a16d 4a3f 18db d93e 9ba1 bbbe
00000220: 9e3c 5bbe 856a 26be 150b a43e b5cf b1be
00000230: 4319 113f 2e2a 573f a456 1c3f 7d42 1e3f
00000240: 6362 c2be b168 b33e 34c3 00bf f6c4 b8bd
00000250: 2792 ecbe 9662 fd3e 80ee 1e3f 6292 03bf
00000260: 84e1 f1be b507 7f3e 703a 243f 0158 d7be
00000270: 29ac e93e b8ac 0a3f 4b6f 5f3f e32b 383f
00000280: de8f 01bf 1c50 073f bde0 f3be 3805 12bf
00000290: 9ce3 e9be 97fa 003f c6da f93e a175 14bf
000002a0: eef7 d2be a93e 0b3f c1e9 273f d418 d2be
000002b0: 5aaa f83e 2bf0 043f 34d9 e83e 0369 123f
000002c0: 765e cabe 4162 293f aa61 42bf 9a06 24bf
000002d0: 554f 30bf 086e 273f e606 293f 7543 c9be
000002e0: 6e68 16bf 87f6 5b3e bf1d 213f 4ebd 06bf
000002f0: 1bc9 1b3f 3288 b93e c034 e53e f321 3d3f
00000300: e053 f9be b963 013f 6447 1abf e05b 30be
00000310: bd58 efbe 2ed5 063f dfff 233f 85fa d3be
00000320: d2f3 92be f6af 46be e879 ef3e 4112 a9be
00000330: f3ef 133f 66bd f13e df7c 0c3f 2e68 ce3e
00000340: e3ea 37bf 6b9f 383f aff6 10bf 7a58 9fbe
00000350: 1b2b e4be 72e5 173f 6780 283f 9cb8 eebe
00000360: 9324 adbe 700c 0abd ea34 073f 2bf0 47be
00000370: 012a 203f e792 033f e347 243f 5b70 2a3f
00000380: 0a22 15bf 4314 023f fe27 c5be 308b 0fbf
00000390: d82c 05bf d806 ac3e 9be9 cc3e f946 2ebf
000003a0: f1f3 1ebf 6419 1a3f f4d7 103f 9814 f4be
000003b0: 32ca 7c3e 7d67 6d3f 3b54 823e 89db bc3e
000003c0: 0ee1 d3be d82a bc3e 2efa d4be 8ad9 b7be
000003d0: aabf afbe a68c d23e 8ae9 f73e 20fb 97be
000003e0: 11dd 8cbe af0a 3c3e c605 ba3e da1c d1be
000003f0: 571e ed3e 14f1 d73e 1eaa 003f 57c4 e33e
-0.30898365 0.4816271 -0.56563604 -0.7952042 -0.5388189 0.44664735 0.5127332 -0.5259841
-0.6181409 0.43514943 0.49903446 -0.57971257 0.43329728 0.5858859 0.34269193 0.3026336
-0.33931053 0.40921363 -0.33572713 -0.6127647 -0.36847496 0.3062921 0.29267055 -0.5424261
-0.5062853 0.4747789 0.4664715 -0.51463705 0.3003689 0.48150876 0.25702882 0.294068
-0.22091357 0.34056684 -0.43338877 -0.2613438 -0.39584962 0.40819928 0.41548443 -0.6288492
-0.47987822 0.5113046 0.51598644 -0.37505522 0.321718 0.29601035 0.2817005 0.2774611
-0.47332168 0.38440233 -0.5903152 -0.53362054 -0.48402467 0.5467808 0.6837462 -0.2758134
-0.48862845 -0.021927316 0.44030225 -0.41519508 0.4610811 0.3363783 0.2348201 0.49946925
-0.4617934 0.56205857 -0.40983263 -0.62633383 -0.5006913 0.30537924 0.18400702 -0.38940793
-0.5164007 0.60290986 0.3253168 -0.58379084 0.38239533 0.19495426 0.26346236 0.43766236
-0.5792958 0.40769383 -0.3736043 -0.49373862 -0.44902298 0.49067077 0.33571142 -0.5435373
-0.44640562 0.46250945 0.3692618 -0.31955233 0.57552356 0.50875705 0.50545543 0.50245124
-0.33112034 0.33690518 -0.5559534 -0.49682382 -0.4830169 0.55953085 0.5589572 -0.28112227
-0.32397285 0.45820275 0.69589037 -0.40956646 0.37536085 0.43455562 0.58951235 0.6915383
-0.70073724 0.4539313 -0.5740132 -0.7373553 -0.6401991 0.42314175 0.49822003 -0.47211683
-0.38562667 0.08479645 0.57669336 -0.47982886 0.7366069 0.33157235 0.5418084 0.58693886
-0.62745696 0.5071113 -0.60583985 -0.30430704 -0.3603137 0.7907353 0.42549968 -0.36646733
-0.21409842 -0.16251571 0.32039705 -0.3472878 0.5667917 0.84048736 0.61069703 0.61820203
-0.37965688 0.3504081 -0.50297856 -0.09021942 -0.46205255 0.49489278 0.6208267 -0.5139524
-0.47242367 0.24905284 0.6415167 -0.4205933 0.4563916 0.541698 0.87279195 0.71941966
-0.5061015 0.5285661 -0.476324 -0.57039213 -0.45681465 0.5038237 0.48799723 -0.5799199
-0.4120478 0.54392487 0.65591055 -0.41034567 0.48567468 0.5192897 0.45478213 0.57191485
-0.39525193 0.6616555 -0.75930274 -0.64072573 -0.6887105 0.6540227 0.6602615 -0.39309278
-0.587531 0.21480761 0.62936014 -0.52632606 0.6085374 0.3623672 0.44766808 0.7387993
-0.48696804 0.5054279 -0.60265183 -0.17222548 -0.4674739 0.52669036 0.64062303 -0.4140207
-0.28701645 -0.19403061 0.46772695 -0.3302174 0.5778801 0.47214812 0.5487804 0.40313858
-0.71842784 0.7211825 -0.5662641 -0.3112219 -0.44564137 0.5933448 0.65820926 -0.4662522
-0.33816966 -0.033703268 0.52815115 -0.1952521 0.6256409 0.5139603 0.6417219 0.6657769
-0.58255064 0.50812167 -0.38507074 -0.5607176 -0.5202155 0.3359897 0.40021977 -0.68077046
-0.62090975 0.60194993 0.5657952 -0.47671962 0.24686506 0.92736036 0.25454888 0.36886242
-0.4138264 0.36751437 -0.41597122 -0.35908157 -0.34325916 0.4112293 0.48420364 -0.2968378
-0.2751241 0.1836345 0.3633253 -0.40842324 0.4631221 0.42176116 0.5025958 0.44485733
