data/MF/mf_model.pt (torch, 169965 bytes, 2 tensors)

user_emb.weight f4 [943, 16]
-0.54571563 -0.31960547 0.6245907 0.38729757 0.5639393 0.4753018 -0.0043271524 -0.4705636
-0.58859605 0.6019155 -0.49264932 -0.6284378 -0.55168813 -0.55353695 -0.5309049 0.6537582
-0.5987099 -0.5779912 0.46931523 0.6282375 0.55499953 0.30809224 -0.040274166 -0.48670736
-0.5351203 0.47781318 -0.4497984 -0.51133966 -0.49144664 -0.53097385 -0.56791586 0.54651386
-0.515108 -0.17055023 0.5341237 0.43956697 0.41508603 0.4413913 -0.36938936 -0.3968646
-0.32113436 0.20357022 -0.8763891 -0.3772481 -0.5390366 -0.4331241 -0.43087703 0.31163248
-0.6800908 -0.60107833 0.659113 0.6185981 0.53330815 0.5776557 -0.6227615 -0.6330918
-0.68378323 0.33403435 -0.3613922 -0.5877233 -0.5371089 -0.5620644 -0.6357648 0.5755498
-0.24881187 -0.10848608 0.45031172 0.369162 0.48895395 0.5565099 -0.3783463 -0.522607
-0.47387403 0.21763436 -0.7138659 -0.428903 -0.5622374 -0.6744497 -0.5081701 0.49202418
-0.5590675 -0.634779 0.51862514 0.43623322 0.51906 0.4094271 0.5458168 -0.5185871
-0.37025663 0.6403958 -0.45705178 -0.53936535 -0.5806974 -0.34670907 -0.3392953 0.57816225
-0.5311599 -0.6124416 0.39247414 0.6985623 0.49618545 0.42185155 -0.3000964 -0.64117867
-0.51371133 0.8010413 -0.8357343 -0.57385963 -0.55327463 -0.5357527 -0.46296474 0.5799788
-0.53002095 -0.5529447 0.45547563 0.45892012 0.51800704 0.43135992 -0.3939579 -0.52053106
-0.503373 0.5576716 -0.51276636 -0.4936914 -0.58632195 -0.5522313 -0.4516903 0.5018191
-0.54252034 -0.36648315 0.54785305 0.56728226 0.5164209 0.56164765 -0.44169474 -0.60190445
-0.51304126 0.5580342 -0.44577548 -0.4684776 -0.50697327 -0.6437042 -0.5652378 0.48777714
-0.4645528 -0.6064244 0.58688265 0.58954746 0.49817064 0.48130003 -0.069196716 -0.6037789
-0.53342843 0.65570384 -0.5181722 -0.5504841 -0.49182492 -0.5365722 -0.47490692 0.6200691
-0.69939274 -0.34562305 0.66050726 0.50897145 0.59152496 0.54947317 -0.38512406 -0.44490328
-0.4206724 0.31967005 -0.0025458205 -0.55946994 -0.45652032 -0.41704792 -0.5021184 0.42754462
-0.48765463 -0.53444344 0.5105107 0.6233407 0.55358136 0.40116745 -0.5935742 -0.557553
-0.5851861 0.6187996 -0.26359805 -0.54504347 -0.51603 -0.5486018 -0.48018536 0.5210915
-0.30987298 0.13335057 0.46803114 0.33595535 0.6316382 0.5218359 0.31356305 -0.87524474
-0.879885 0.65501255 0.13501775 -0.73666453 -0.6885823 -0.8423475 -0.49664 0.6155608
-0.54838026 -0.56560504 0.6189186 0.5925274 0.4889311 0.5937283 -0.2539043 -0.5750248
-0.5447735 0.7185342 -0.7398817 -0.59767616 -0.6053668 -0.45450106 -0.4899824 0.57723826
-0.5598376 -0.46765986 0.4653156 0.6746992 0.49164864 0.10364634 -0.3611422 -0.43670994
-0.46378374 0.21103077 -0.26774532 -0.44076252 -0.43881935 -0.25148407 -0.35485947 0.3538493
-0.55050206 -0.6357879 0.3595616 0.60413855 0.66407204 0.46073827 -0.46580088 -0.6607783
-0.6842659 0.78565145 -0.38200906 -0.63519526 -0.56908727 -0.68705887 -0.5545591 0.6264321
00000000: 05b4 0bbf 54a3 a3be 2de5 1f3f de4b c63e
00000010: 535e 103f c25a f33e c9ca 8dbb b6ed f0be
00000020: 3bae 16bf 2217 1a3f 883c fcbe 4de1 20bf
00000030: 6f3b 0dbf 99b4 0dbf 62e9 07bf b35c 273f
00000040: 0d45 19bf 3bf7 13bf 164a f03e 2cd4 203f
00000050: 7314 0e3f 44be 9d3e 86f6 24bd b531 f9be
00000060: a5fd 08bf eea3 f43e fa4b e6be 28e7 02bf
00000070: e59e fbbe e7ed 07bf ef62 11bf 55e8 0b3f
00000080: 1ede 03bf b8a4 2ebe 55bc 083f ec0e e13e
00000090: 2886 d43e 0afe e13e 9a20 bdbe d631 cbbe
000000a0: b96b a4be b674 503e 095b 60bf aa26 c1be
000000b0: 4dfe 09bf 71c2 ddbe ea9b dcbe 4b8e 9f3e
000000c0: 6e1a 2ebf 45e0 19bf a1bb 283f 725c 1e3f
000000d0: e286 083f 3ee1 133f 4c6d 1fbf 4e12 22bf
000000e0: 6b0c 2fbf 8d06 ab3e 6608 b9be 0975 16bf
000000f0: f87f 09bf 74e3 0fbf 7bc1 22bf 3b57 133f
00000100: 8ac8 7ebe f32d debd 428f e63e cd02 bd3e
00000110: 2c58 fa3e 6f77 0e3f 9bb6 c1be 93c9 05bf
00000120: 9e9f f2be 8bdb 5e3e eabf 36bf 2d99 dbbe
00000130: caee 0fbf bca8 2cbf 7017 02bf 98ea fb3e
00000140: 0c1f 0fbf e080 22bf 9ec4 043f f659 df3e
00000150: 1ee1 043f 6ea0 d13e a6ba 0b3f 20c2 04bf
00000160: 4792 bdbe fbf0 233f b102 eabe d913 0abf
00000170: 96a8 14bf da83 b1be 1db8 adbe 7102 143f
00000180: 18fa 07bf f9c8 1cbf 5ff2 c83e fbd4 323f
00000190: 050c fe3e edfc d73e 3ca6 99be 4924 24bf
000001a0: 9682 03bf 0b11 4d3f aff2 55bf 77e8 12bf
000001b0: 68a3 0dbf 1727 09bf b709 edbe 7e79 143f
000001c0: 74af 07bf c98d 0dbf 1a34 e93e 94f7 ea3e
000001d0: 1c9c 043f 35db dc3e dab4 c9be 8641 05bf
000001e0: 0edd 00bf 91c3 0e3f a844 03bf 1fc5 fcbe
000001f0: 3219 16bf 085f 0dbf f343 e7be 3777 003f
00000200: 9de2 0abf aea3 bbbe 1940 0c3f 6939 113f
00000210: 2934 043f 24c8 0f3f d025 e2be 6916 1abf
00000220: ac56 03bf 54db 0e3f af3c e4be 4cdc efbe
00000230: 00c9 01bf ccc9 24bf 6db3 10bf edbd f93e
00000240: ddd9 edbe a13e 1bbf f13d 163f 95ec 163f
00000250: 3910 ff3e f56c f63e 02b7 8dbd 4191 1abf
00000260: c48e 08bf 35dc 273f efa6 04bf 87ec 0cbf
00000270: 7ad0 fbbe cc5c 09bf 0027 f3be d9bc 1e3f
00000280: 670b 33bf 81f5 b0be 0117 293f f44b 023f
00000290: 2e6e 173f 46aa 0c3f fb2e c5be 5dca e3be
000002a0: 5f62 d7be cbab a33e c8d7 26bb 6c39 0fbf
000002b0: 08bd e9be 4e87 d5be d58a 00bf 21e7 da3e
000002c0: dead f9be 49d1 08bf d4b0 023f 4293 1f3f
000002d0: 82b7 0d3f d265 cd3e 7bf4 17bf cbbb 0ebf
000002e0: c2ce 15bf a769 1e3f 53f6 86be f887 0bbf
000002f0: 8b1a 04bf 2b71 0cbf dbda f5be 4166 053f
00000300: aca7 9ebe 0d8d 083e c7a1 ef3e 5702 ac3e
00000310: 0bb3 213f 0a97 053f 568b a03e 0a10 60bf
00000320: 2540 61bf e7ae 273f 1842 0a3e 0c96 3cbf
00000330: ee46 30bf 16a4 57bf 9947 febe 6595 1d3f
00000340: a662 0cbf 7ecb 10bf 7371 1e3f e0af 173f
00000350: 2d55 fa3e 94fe 173f bfff 81be d334 13bf
00000360: 4776 0bbf dbf1 373f e368 3dbf 4e01 19bf
00000370: 52f9 1abf 5db4 e8be f9de fabe e3c5 133f
00000380: 8451 0fbf 1d71 efbe d93d ee3e 16b9 2c3f
00000390: 5fb9 fb3e 8844 d43d a1e7 b8be 7298 dfbe
000003a0: 1075 edbe 7318 583e ea15 89be a0ab e1be
000003b0: eeac e0be 85c2 80be 24b0 b5be bc2b b53e
000003c0: b4ed 0cbf ffc2 22bf 7518 b83e d3a8 1a3f
000003d0: a000 2a3f e3e5 eb3e 747d eebe c428 29bf
000003e0: 0d2c 2fbf 7420 493f b196 c3be 289c 22bf
000003f0: b4af 11bf 17e3 2fbf 96f7 0dbf db5d 203f

item_emb.weight f4 [1682, 16]
-0.72795933 -0.67530555 0.25297126 0.42611843 0.6010383 0.5008815 -0.6075397 -0.56411237
-0.40572363 0.43037006 -0.31653246 -0.58494014 -0.5163488 -0.5911258 -0.44114324 0.46951154
-0.2414157 -0.3876071 0.34878027 0.39828745 0.44614816 0.48685685 -0.6599686 -0.41179493
-0.54040205 0.44673356 -0.31767032 -0.47143927 -0.50665826 -0.32430398 -0.3827447 0.44620505
-0.16744058 -0.25016427 0.3494945 0.41097113 0.40950915 0.23726788 -0.8158362 -0.44078296
-0.27050856 0.7259134 -0.5546872 -0.45163965 -0.25430322 -0.30570543 -0.4353434 0.42082945
-0.2967462 -0.31177613 0.30664504 0.5895553 0.51565325 0.42332098 0.06806682 -0.5800284
-0.5250166 0.6482643 -0.2495366 -0.59572685 -0.5124292 -0.8202796 -0.34335473 0.35186848
-0.2598294 -0.4947345 0.3941172 0.45981118 0.43347853 0.39206806 -0.96176255 -0.38609102
-0.35083494 0.45012817 -0.31846067 -0.39861986 -0.35339016 -0.22150186 -0.33898398 0.38219312
-0.46754223 -0.4351401 0.36116052 0.5573459 0.3851328 0.38926172 0.03834723 -0.48543614
-0.4665232 0.4277938 -0.25414085 -0.507027 -0.5022928 -0.3929923 -0.45252204 0.4672256
-0.4035739 -0.3168506 0.38363382 0.18611468 0.66768587 0.5203477 -0.22609285 -0.68138444
-0.5594789 0.41158223 -0.34997302 -0.6303808 -0.6565789 -0.6417788 -0.37780333 0.6948422
-0.545278 -0.5961663 0.5163386 0.6760712 0.6650297 0.4612735 -0.2408198 -0.64088404
-0.5556038 0.6614039 -0.022737764 -0.5330216 -0.64844567 -0.64701265 -0.38954848 0.6294265
-0.7746038 -0.37043035 0.43225363 0.26586327 0.7489083 0.50723445 0.580518 -0.7072058
-0.58064014 0.38451868 -0.2901735 -0.6369368 -0.64692223 -0.44897258 -0.5878423 0.5831101
-0.57276785 -0.5353136 0.67773837 0.40501356 0.5319337 0.78700966 0.30932593 -0.6312309
-0.5528778 0.42888632 -0.32253775 -0.59468216 -0.60622317 -0.50859565 -0.41744322 0.55412847
-0.36575887 -0.6282494 0.4387068 0.17388678 0.47172037 0.5227314 -0.18128656 -0.48964253
-0.5236703 0.72247595 -0.68120956 -0.59719867 -0.44109988 -0.3510693 -0.44029808 0.55020267
-0.44957194 -0.6526484 0.51650256 0.5297566 0.5975819 0.49742374 -0.092823416 -0.6347243
-0.6275564 0.5036774 -0.24352463 -0.710114 -0.721853 -0.7654323 -0.53731835 0.6837998
-0.58999115 -0.28863913 0.53570175 0.31671628 0.5864722 0.3353062 0.49442014 -0.5467873
-0.43139455 0.39828575 -0.36190704 -0.45767432 -0.38925758 -0.6014998 -0.5892368 0.50924873
-0.6757786 -0.56625813 0.4818068 0.5268741 0.5968254 0.3780032 0.5996487 -0.54574925
-0.5482807 0.5891667 -0.43069145 -0.50697076 -0.511361 -0.42586386 -0.580177 0.43886858
-0.5076135 -0.33496514 0.5258211 0.68900865 0.54168105 0.46956468 -0.7127312 -0.48873305
-0.547985 0.59638155 -0.124866076 -0.48707986 -0.40736556 -0.38123146 -0.33621266 0.469054
-0.51746005 -0.20284896 0.51738113 0.3886637 0.4755578 0.43172356 -0.12902167 -0.416557
-0.44841707 0.44441646 -0.41279036 -0.47467145 -0.42036927 -0.4482306 -0.36220992 0.43891457
00000000: 8b5b 3abf d3e0 2cbf 7385 813e 322c da3e
00000010: a5dd 193f c539 003f b987 1bbf ab69 10bf
00000020: 02bb cfbe 7759 dc3e 8b10 a2be a3be 15bf
00000030: 6f2f 04bf 0554 17bf 87dd e1be d163 f03e
00000040: ad35 77be 7074 c6be 5493 b23e 55ec cb3e
00000050: 886d e43e 4d45 f93e b4f3 28bf c9d6 d2be
00000060: ca57 0abf 43ba e43e afa5 a2be 7d60 f1be
00000070: 5bb4 01bf 2c0b a6be 1df7 c3be fd74 e43e
00000080: 8b75 2bbe 8815 80be f1f0 b23e cf6a d23e
00000090: 2fab d13e 5af6 723e a4da 50bf 4eae e1be
000000a0: 1980 8abe 76d5 393f fbff 0dbf 503d e7be
000000b0: 0834 82be 6c85 9cbe 55e5 debe f576 d73e
000000c0: 1eef 97be 1fa1 9fbe 9400 9d3e 19ed 163f
000000d0: da01 043f 87bd d83e 9e66 8b3d be7c 14bf
000000e0: 7d67 06bf a6f4 253f 8686 7fbe 8e81 18bf
000000f0: 8f2e 03bf d8fd 51bf 31cc afbe 1b28 b43e
00000100: 5c08 85be d74d fdbe bbc9 c93e 5f6c eb3e
00000110: e6f0 dd3e 25bd c83e 1236 76bf b9ad c5be
00000120: a3a0 b3be 3377 e63e 470d a3be e717 ccbe
00000130: 8eef b4be 62d1 62be 4f8f adbe d1ae c33e
00000140: b261 efbe afca debe 08ea b83e 39ae 0e3f
00000150: 2030 c53e 504d c73e fc11 1d3d 168b f8be
00000160: 21dc eebe ca07 db3e c01e 82be 85cc 01bf
00000170: 4396 00bf 4936 c9be f8b0 e7be 3238 ef3e
00000180: 3da1 cebe 3e3a a2be a76b c43e d994 3e3e
00000190: 76ed 2a3f 8235 053f e284 67be 366f 2ebf
000001a0: 023a 0fbf e8ba d23e aa2f b3be a360 21bf
000001b0: 8e15 28bf 9e4b 24bf 706f c1be 2ee1 313f
000001c0: 5797 0bbf 5b9e 18bf c42e 043f 0113 2d3f
000001d0: 633f 2a3f 0a2c ec3e 7799 76be fa10 24bf
000001e0: 0d3c 0ebf c451 293f 8c44 babc 1b74 08bf
000001f0: 8900 26bf 9fa2 25bf e672 c7be 1822 213f
00000200: 6f4c 46bf 0ca9 bdbe 5950 dd3e 3b1f 883e
00000210: 74b8 3f3f 1eda 013f d49c 143f 700b 35bf
00000220: d5a4 14bf a2df c43e 9f91 94be 4a0e 23bf
00000230: b29c 25bf bcdf e5be d57c 16bf b446 153f
00000240: eaa0 12bf 500a 09bf 4380 2d3f f05d cf3e
00000250: cf2c 083f 7779 493f f85f 9e3e 5998 21bf
00000260: 6689 0dbf fd96 db3e ab23 a5be 173d 18bf
00000270: 7131 1bbf 5333 02bf 1ebb d5be 5ddb 0d3f
00000280: bf44 bbbe f4d4 20bf 2d9e e03e 600f 323e
00000290: 5585 f13e bad1 053f 2fa3 39be 6db2 fabe
000002a0: 420f 06bf 2ff4 383f c063 2ebf 03e2 18bf
000002b0: d8d7 e1be 5bbf b3be c06e e1be 15da 0c3f
000002c0: 4b2e e6be f713 27bf 8339 043f 219e 073f
000002d0: 21fb 183f 53ae fe3e 341a bebd 4b7d 22bf
000002e0: 89a7 20bf 01f1 003f 855e 79be 08ca 35bf
000002f0: 5ccb 38bf 5ff3 43bf b28d 09bf 810d 2f3f
00000300: a909 17bf 82c8 93be c023 093f a328 a23e
00000310: 0b23 163f 41ad ab3e a324 fd3e 41fa 0bbf
00000320: bfdf dcbe 1cec cb3e e14b b9be 4a54 eabe
00000330: c54c c7be e4fb 19bf 39d8 16bf 205e 023f
00000340: d4ff 2cbf 4bf6 10bf 62af f63e 39e1 063f
00000350: 8dc9 183f a389 c13e 9482 193f 39b6 0bbf
00000360: 205c 0cbf a1d3 163f 9783 dcbe d6c8 01bf
00000370: 8ee8 02bf d40a dabe 7b86 14bf 62b3 e03e
00000380: f5f2 01bf 8d80 abbe 369c 063f df62 303f
00000390: 9cab 0a3f c86a f03e 8d75 36bf 383b fabe
000003a0: bf48 0cbf 76ac 183f c9b9 ffbd 8862 f9be
000003b0: 3892 d0be c530 c3be 1124 acbe d927 f03e
000003c0: 4378 04bf a3b7 4fbe 1773 043f eefe c63e
000003d0: 507c f33e df0a dd3e 421e 04be f646 d5be
000003e0: ec96 e5be 8e8a e33e 4259 d3be 2308 f3be
000003f0: a43a d7be 7b7e e5be 9473 b9be 69b9 e03e
