data/MF/mf_model.pt (torch, 337566 bytes, 2 tensors)

user_emb.weight f4 [943, 32]
0	0x3ec2c316	0.38039464
1	0x3eee8251	0.465838
2	0x3ec708e0	0.3887396
3	0x3f155ff2	0.58349526
4	0xbf06deb0	-0.52683544
5	0x3eb495b9	0.3527048
6	0x3f087ea8	0.5331826
7	0x3e254876	0.16140923
8	0xbe23fbf7	-0.16014086
9	0x3f0450ef	0.51685995
10	0xbec3e1db	-0.38258252
11	0xbe9ca6c4	-0.30595982
12	0xbf12faea	-0.57414114
13	0x3ea129c1	0.31477168
14	0x3e9b53df	0.30337426
15	0xbf29c1c6	-0.663113
16	0xbef15e75	-0.47142377
17	0xbece6543	-0.40311632
18	0x3f041385	0.51592284
19	0xbec712a0	-0.38881397
20	0xbecf4810	-0.40484667
21	0xbed78467	-0.42093202
22	0xbea541f6	-0.32276887
23	0xbe86fa07	-0.2636263
24	0x3e9e94a3	0.30972776
25	0xbefdd2d5	-0.49574915
26	0x3ed5fbb0	0.41793585
27	0xbed4abdf	-0.41537377
28	0x3f049b04	0.51799035
29	0x3df918a3	0.12162902
30	0xbf185541	-0.5950509
31	0x3ef0eb15	0.47054353
32	0x3f047976	0.51747835
33	0x3e80cbea	0.25155574
34	0xbe85c506	-0.2612688
35	0x3eeebb78	0.46627402
36	0xbeb4245f	-0.35184
37	0x3e27cc7f	0.16386603
38	0x3ebce4fd	0.36893454
39	0x3ed136f7	0.40862247
40	0x3ea20bf4	0.31649745
41	0x3ec67ca9	0.38766983
42	0xbee91b63	-0.45528707
43	0xbe80d697	-0.2516372
44	0xbee8d3c6	-0.4547407
45	0x3ee78af2	0.45223194
46	0x3e8636fd	0.26213828
47	0x3c0698d4	0.008215148
48	0xbec9799c	-0.39350593
49	0x3e1f5152	0.15558365
50	0x3ee0f2f2	0.43935353
51	0xbea2b630	-0.31779623
52	0xbef7168f	-0.48259398
53	0xbebd1ecc	-0.3693756
54	0xbef2582d	-0.47332898
55	0xbeed208c	-0.46313894
56	0x3e983a59	0.29732016
57	0xbeea2e2d	-0.45738354
58	0x3eb2a9c0	0.34895134
59	0xbea20552	-0.31644684
60	0x3eb4a072	0.3527866
61	0xbe43c63f	-0.19118594
62	0xbebe9f77	-0.37231037
63	0x3ebed772	0.37273747
64	0x3f151c71	0.58246523
65	0x3e2627bc	0.16226095
66	0xbee149c3	-0.44001588
67	0x3e2bafe9	0.16766323
68	0xbdf46092	-0.11932482
69	0x3e38cf61	0.18047859
70	0x3ea58a1c	0.32331932
71	0x3e5ceaa2	0.2157388
72	0xbdc38a30	-0.095478415
73	0x3e9a4c96	0.30136555
74	0xbe95768b	-0.29192004
75	0xbe881612	-0.26579338
76	0xbe22b7bb	-0.158904
77	0x3eaa9f3a	0.33324605
78	0x3efb9587	0.49137518
79	0x3dbb1981	0.09135724
80	0xbdae5069	-0.08511431
81	0xbe8cb7a3	-0.27483854
82	0x3ea6bd50	0.3256631
83	0xbe82da60	-0.25557232
84	0xbe716853	-0.23574953
85	0xbda6fc8f	-0.081536405
86	0xbeb64b50	-0.35604334
87	0xbe8bf1ec	-0.2733301
88	0x3f18d299	0.59696347
89	0xbea80b52	-0.32821137
90	0x3ec4ed49	0.38462284
91	0x3e34c5c1	0.17653562
92	0x3eb6f7ac	0.35735834
93	0xbeaee4b4	-0.34158862
94	0xbea66af7	-0.32503483
95	0x3e93b2fd	0.28847495
96	0x3f2e9775	0.68199855
97	0x3ea3b585	0.31974426
98	0xbeb69407	-0.3565981
99	0x3f056b1a	0.5211655
100	0xbef0dc26	-0.4704296
101	0x3ed02ec4	0.4066068
102	0x3ecdce42	0.40196425
103	0x3ee41b97	0.445523
104	0x3e15183f	0.1456003
105	0x3edf8135	0.43653265
106	0xbee60ade	-0.44930166
107	0xbebfc4fb	-0.37454972
108	0xbed3dbe5	-0.41378704
109	0x3ef0a9ca	0.4700454
110	0x3ee25e80	0.44212723
111	0x3ecb1ea4	0.39671814
112	0xbea2917f	-0.3175163
113	0xbefa0222	-0.48829752
114	0x3ef5a8ae	0.47980255
115	0xbeda3bea	-0.42623836
116	0xbeb83529	-0.35978058
117	0xbe9caaff	-0.3059921
118	0xbf08a141	-0.53371054
119	0xbf080b25	-0.53142005
120	0x3f05827b	0.5215222
121	0xbece91dc	-0.40345657
122	0x3ec0c610	0.3765111
123	0xbd4c2605	-0.049840946
124	0x3eacd570	0.3375659
125	0xbf02ae28	-0.5104699
126	0xbec79206	-0.38978595
127	0x3eb68263	0.35646352
128	0x3e11c6e3	0.14236026
129	0x3e3e4e36	0.18584523
130	0xbefce0aa	-0.49390155
131	0x3ee336a9	0.4437764
132	0xbdef160f	-0.11674129
133	0xbdd617ac	-0.10453734
134	0x3ed59a2a	0.4171918
135	0x3e6d18bd	0.23153968
136	0xbeebb08a	-0.46033126
137	0xbe62e48f	-0.221575
138	0xbf01c9b2	-0.5069839
139	0xbe01ab0e	-0.12662908
140	0xbeacd09f	-0.33752915
141	0x3ef26771	0.47344545
142	0x3ec8eba2	0.39242274
143	0xbecdfead	-0.40233365
144	0xbe9a5d60	-0.30149364
145	0xbf43cf69	-0.7648836
146	0x3e66065b	0.22463362
147	0xbecbb259	-0.39784506
148	0xbf23ab84	-0.6393359
149	0xbe970b94	-0.2950102
150	0xbe8e8b88	-0.2784083
151	0xbee46554	-0.44608557
152	0xbe409389	-0.1880628
153	0xbed856de	-0.42253774
154	0x3f0e1859	0.555059
155	0x3f12b9de	0.5731486
156	0x3f039001	0.5139161
157	0xbee94ac4	-0.45564854
158	0xbf1deed0	-0.61692524
159	0x3ee47dbc	0.44627178
160	0x3ead606f	0.33862635
161	0x3e9273eb	0.28604063
162	0x3dca58af	0.09880196
163	0x3e93a907	0.28839895
164	0xbe91d0c3	-0.28479585
165	0x3eba326d	0.36366597
166	0x3ec79b85	0.3898584
167	0x3dd37b4b	0.10326251
168	0x3f3b50d2	0.73170197
169	0x3e9a6920	0.3015833
170	0xbe8d2e94	-0.275746
171	0xbe86ee79	-0.26353815
172	0xbea15a6c	-0.315143
173	0x3edf9701	0.43669894
174	0x3ea1d7d4	0.31609976
175	0xbf351fa5	-0.7075141
176	0xbf175326	-0.5911125
177	0x3eb5b682	0.35490805
178	0x3ec75e4b	0.38939127
179	0xbeaf2dc1	-0.34214595
180	0xbece5c33	-0.40304717
181	0xbe6f061b	-0.23342173
182	0xbefc197e	-0.492382
183	0xbf0adb1a	-0.5424057
184	0x3e9ce28b	0.3064159
185	0xbecaa30f	-0.3957753
186	0x3f090658	0.53525305
187	0xbee2753e	-0.44230074
188	0x3e753b50	0.23948407
189	0x3e35830d	0.17725773
190	0xbead6135	-0.33863226
191	0x3ec47378	0.38369346
192	0xbe81eebd	-0.25377455
193	0x3f275340	0.65361404
194	0xbe8eb97a	-0.27875882
195	0x3f288334	0.658252
196	0xbea9adeb	-0.331405
197	0x3e0acc7f	0.13554572
198	0x3ed48855	0.41510263
199	0x3eb16abd	0.34651747
200	0x3f399938	0.7249942
201	0x3edc574b	0.4303535
202	0xbed168c4	-0.40900242
203	0xbe80836a	-0.2510026
204	0xbed136c8	-0.40862107
205	0x3ee5d3a1	0.44888023
206	0xbe6bb563	-0.23018412
207	0xbf706826	-0.9390892
208	0xbf0fad25	-0.5612357
209	0xbb83bc7e	-0.0040202728
210	0x3f0b56e2	0.5442945
211	0xbefdd6bb	-0.4957789
212	0xbf29c1b9	-0.6631122
213	0xbeaa0a71	-0.3321109
214	0xbe2527b7	-0.16128431
215	0xbdc0906d	-0.09402547
216	0x3f047f0a	0.51756346
217	0xbef31da4	-0.47483552
218	0x3e898e0d	0.2686619
219	0xbe6e20a7	-0.23254643
220	0x3eee4b84	0.4654199
221	0xbf020b41	-0.5079842
222	0xbf09e42f	-0.53863806
223	0x3f188225	0.59573585
224	0x3cf55bfa	0.029951084
225	0x3ec6b038	0.3880632
226	0x3c3748a8	0.011186756
227	0x3ee1432a	0.43996555
228	0xbeea5629	-0.4576886
229	0x3eaea993	0.3411375
230	0x3e54f084	0.20794874
231	0x3f02e85c	0.511358
232	0x3e5acaa7	0.21366368
233	0x3ec6498b	0.38727984
234	0xbeb15450	-0.34634638
235	0xbd4abc67	-0.04949608
236	0xbee4cab5	-0.44685903
237	0x3eebd1cd	0.46058503
238	0x3ef9bb5b	0.48775753
239	0xbe7cedef	-0.2470014
240	0xbed7f743	-0.42180833
241	0x3e01c685	0.12673385
242	0x3ec31c43	0.381075
243	0xbeb14dd4	-0.3462969
244	0xbeff5008	-0.49865746
245	0xbec55a15	-0.3854529
246	0xbe96c2a6	-0.2944538
247	0xbeb6da05	-0.3571321
248	0x3e99fa3d	0.3007373
249	0xbed3cd23	-0.41367444
250	0x3ecd77f7	0.40130588
251	0xbe3a41b1	-0.18189122
252	0x3eada5ac	0.3391546
253	0xbe9663e8	-0.29373097
254	0xbecf27d0	-0.40460062
255	0x3ea98800	0.33111572

item_emb.weight f4 [1682, 32]
0	0xbeceb2ec	-0.40370882
1	0x3e6c57d4	0.23080379
2	0xbf21fdbb	-0.63277787
3	0x3ead3d18	0.33835673
4	0xbed95088	-0.42444253
5	0x3f0efe33	0.5585663
6	0x3f01f38e	0.5076226
7	0x3f0372c4	0.51346993
8	0xbde3e314	-0.11127296
9	0xbe397372	-0.18110445
10	0xbf10e55f	-0.5659999
11	0xbe055064	-0.13018948
12	0xbe2dcafe	-0.16971967
13	0x3e942b39	0.28939226
14	0x3efca62b	0.49345526
15	0xbeefad7a	-0.4681204
16	0xbefdc928	-0.49567533
17	0x3e571841	0.21005346
18	0x3e97bf38	0.29638076
19	0xbf0e48ef	-0.5558004
20	0xbef1695d	-0.47150698
21	0xbf199c72	-0.6000434
22	0xbee16e39	-0.44029406
23	0xbe9abc78	-0.30221915
24	0x3c333e43	0.010940137
25	0xbe7a8591	-0.24465014
26	0x3e930412	0.28714043
27	0xbe54308b	-0.20721643
28	0x3ef35ce5	0.4753181
29	0xbed1133b	-0.40834984
30	0xbf07826f	-0.529334
31	0x3f25421a	0.6455399
32	0xbf0f4927	-0.55970997
33	0x3e8cee31	0.27525476
34	0xbe8918aa	-0.2677663
35	0x3eaa338b	0.3324245
36	0xbe4f9503	-0.20271687
37	0x3eb2ceb8	0.3492334
38	0x3e246d88	0.16057408
39	0x3dfc1d93	0.12310328
40	0x3d8296ce	0.0637642
41	0x3ead43da	0.3384083
42	0xbe98947b	-0.29800782
43	0xbe69336d	-0.22773524
44	0xbe8f6324	-0.28005326
45	0x3e97b24b	0.29628214
46	0x3da0cb53	0.07851281
47	0xbe2c8d6e	-0.16850826
48	0xbeae57b5	-0.3405129
49	0xbe60e5dc	-0.21962684
50	0x3ea94809	0.3306277
51	0xbe59113a	-0.21197978
52	0xbedfb985	-0.43696228
53	0xbd88e873	-0.06684961
54	0xbef52a02	-0.47883612
55	0xbea64fb3	-0.3248268
56	0x3dc24365	0.09485511
57	0xbe85b31f	-0.2611322
58	0x3ecfd6ca	0.4059356
59	0xbeae82d5	-0.34084192
60	0x3eaff944	0.34369862
61	0xbde644e3	-0.11243608
62	0xbea941cb	-0.3305801
63	0x3eb101d0	0.34571695
64	0xbe63ac07	-0.22233592
65	0x3ee4a6a5	0.4465839
66	0x3f0c9c05	0.54925567
67	0x3d510138	0.051026553
68	0xbed35e05	-0.4128267
69	0x3f0cec77	0.55048317
70	0x3ea453dc	0.3209523
71	0x3d8e49e6	0.06947689
72	0xbe0b8ac8	-0.1362716
73	0x3ef2b2ab	0.47401938
74	0xbedc8297	-0.43068382
75	0xbf163107	-0.5866856
76	0xbef1f465	-0.4725677
77	0x3e4d5260	0.20050955
78	0xbe62194f	-0.22079967
79	0x3e4fb880	0.20285225
80	0xbe708843	-0.2348948
81	0xbf2cc42a	-0.6748682
82	0x3e92c13d	0.28663054
83	0xbe840ef9	-0.25792673
84	0xbe44227f	-0.19153784
85	0xbebdf26a	-0.3709901
86	0xbe7bbf7a	-0.24584761
87	0xbec4fb29	-0.3847287
88	0xbead6314	-0.33864653
89	0xbee5e7ab	-0.4490331
90	0x3edc9b52	0.4308725
91	0xbf0b097e	-0.5431136
92	0x3e858e4e	0.26085132
93	0x3e0fbc98	0.14036787
94	0xbeb80653	-0.35942325
95	0x3e5ba39e	0.21449134
96	0x3e7dea1b	0.24796335
97	0x3f17062e	0.58993804
98	0xbefc5425	-0.49282947
99	0xbd1bfd67	-0.03808346
100	0xbdeb87bf	-0.11500501
101	0x3e913cc5	0.28366676
102	0x3e98100a	0.29699737
103	0x3eb46578	0.35233665
104	0x3eb5130f	0.35366103
105	0x3e33c476	0.17555413
106	0xbed79d86	-0.42112368
107	0xbf11a057	-0.56885284
108	0xbebae990	-0.3650632
109	0x3ef105e6	0.47074813
110	0xbdc4c8e7	-0.096086316
111	0xbe9bf662	-0.30461413
112	0xbea26aa2	-0.3172198
113	0xbd75501c	-0.05989085
114	0x3ef724dd	0.48270312
115	0xbec7e3e5	-0.39041057
116	0xbecb042b	-0.39651617
117	0xbeda381c	-0.42620933
118	0xbee574a0	-0.4481554
119	0xbe41bf71	-0.18920685
120	0x3e0cd980	0.13754845
121	0xbf0f3182	-0.5593492
122	0x3ef745df	0.48295495
123	0x3ee6f522	0.45108896
124	0x3f045ef4	0.51707387
125	0xbe7c56e2	-0.24642518
126	0xbe9d2b78	-0.30697227
127	0x3ed37d21	0.41306403
128	0xbee79dec	-0.45237672
129	0x3e93299b	0.2874268
130	0xbeaf42a3	-0.34230527
131	0x3e95032d	0.29103985
132	0xbf09c96f	-0.5382299
133	0x3e8676c1	0.26262477
134	0x3f1468bf	0.5797233
135	0x3eac4237	0.33644268
136	0x3f035643	0.513035
137	0x3f1644ac	0.58698535
138	0xbeb6eedd	-0.35729113
139	0xbdb12a84	-0.08650687
140	0xbee3d5d8	-0.44499087
141	0x3e8e84f2	0.27835804
142	0x3ddf643c	0.1090779
143	0x3eb413a9	0.3517125
144	0xbeac2acc	-0.336264
145	0xbe5880db	-0.21142904
146	0x3e99a8ae	0.30011505
147	0xbea7d296	-0.32777852
148	0xbeab7ec4	-0.33495152
149	0xbecc89c2	-0.3994885
150	0xbe80c1c8	-0.25147843
151	0xbe59c914	-0.21268111
152	0x3e89199d	0.26777354
153	0xbe9cc287	-0.30617163
154	0x3e72d383	0.23713498
155	0xbe276bed	-0.16349764
156	0x3ea5a707	0.32353994
157	0xbed89836	-0.42303628
158	0xbe6af63f	-0.22945498
159	0x3e9ab5d3	0.30216846
160	0x3f198127	0.59962696
161	0x3ea20e72	0.31651646
162	0xbec91dd1	-0.3928056
163	0x3eaba272	0.33522373
164	0xbe3f727b	-0.18696015
165	0x3f09bdcd	0.5380524
166	0x3e6978c6	0.22799978
167	0x3e4b72b6	0.19867977
168	0x3f2731a3	0.65310115
169	0x3eb36f25	0.35045734
170	0xbe73b976	-0.23801216
171	0xbec5d062	-0.38635546
172	0xbeaaca82	-0.33357626
173	0x3ec09ffc	0.37622058
174	0x3e907ed5	0.28221765
175	0x3e477c08	0.19480908
176	0xbe7ad594	-0.24495536
177	0xbe5c1205	-0.21491249
178	0x3e8fde8d	0.2809948
179	0xbe912102	-0.28345495
180	0xbeb3c56c	-0.35111558
181	0xbe84efd4	-0.25964224
182	0xbe6c0dc1	-0.23052122
183	0xbe8ba3ff	-0.27273557
184	0x3ea54d36	0.3228547
185	0xbe93be58	-0.28856158
186	0x3e02e6c4	0.12783343
187	0xbe78494e	-0.24246714
188	0x3e812eb4	0.25230944
189	0xbec2771f	-0.37981507
190	0xbe2fcdb3	-0.17168312
191	0x3e7a1c13	0.24424772
192	0x3dc70b52	0.09718956
193	0x3ebb7e4c	0.36619794
194	0xbe946e7d	-0.28990546
195	0x3e8c2617	0.2737281
196	0xbe5ddfdc	-0.21667427
197	0x3eca15eb	0.39469847
198	0x3e3fbd97	0.18724667
199	0x3f1d33c9	0.6140714
200	0x3d9c5dfb	0.07635113
201	0x3d89ac66	0.067223355
202	0xbed15201	-0.40882877
203	0xbd92f1b2	-0.07175006
204	0xbe6badeb	-0.23015563
205	0x3f188049	0.5957075
206	0x3ef12edd	0.47106066
207	0xbc9a6d5a	-0.018850971
208	0x3d06eff8	0.032943696
209	0xbf1bc26a	-0.6084353
210	0x3f03f577	0.51546425
211	0xbf0633cf	-0.52422804
212	0xbf2eddfa	-0.6830746
213	0xbe4f256b	-0.20229118
214	0xbeb11d7a	-0.345928
215	0xbf4e745a	-0.8064629
216	0x3ef73072	0.48279148
217	0xbf2759f5	-0.6537164
218	0x3d9912fb	0.07474323
219	0x3ee17c8d	0.44040337
220	0x3eef5129	0.46741608
221	0xbdf716e0	-0.1206491
222	0xbf0877c8	-0.5330777
223	0x3ebdc27d	0.37062445
224	0x3e3af07c	0.182558
225	0x3dce6c7c	0.100792855
226	0xbf122231	-0.5708342
227	0x3ee49dda	0.4465168
228	0xbf1b0b92	-0.6056453
229	0x3eb91518	0.36148906
230	0x3e4fe645	0.20302685
231	0x3ed9256b	0.4241136
232	0x3f086be3	0.5328962
233	0x3f0266d0	0.5093813
234	0xbed5dee5	-0.41771618
235	0xbe9daf68	-0.30797887
236	0xbe9a4084	-0.30127347
237	0x3f144e56	0.5793203
238	0x3e490d4c	0.19633979
239	0xbe1419b8	-0.14462936
240	0xbebc608f	-0.36792418
241	0x3dc22ee8	0.09481603
242	0x3ef26bff	0.4734802
243	0xbf1a369f	-0.60239595
244	0xbed9283e	-0.42413515
245	0xbf025036	-0.5090364
246	0xbee9736b	-0.4559587
247	0xbf0ac171	-0.5420142
248	0xbcbcfba3	-0.023069208
249	0xbeb45bd6	-0.35226315
250	0x3ed9c635	0.42534032
251	0x3ec0dc99	0.37668303
252	0x3ee3161b	0.44352803
253	0xbf513cb0	-0.81733227
254	0xbd62d17d	-0.055375565
255	0x3f04ba1c	0.5184648
