data/BPR/bpr_model.pt (torch, 337973 bytes, 2 tensors)

user_emb.weight f4 [943, 32]
000000 ec 99 0c 2e 0b b4 18 aa 7b 0a 37 29 ca 42 e8 aa
       3.1969025e-11 -1.3562777e-13 4.0643253e-14 -4.1257823e-13
000010 26 e4 22 2d 3c e1 96 2d 2c 3e c7 a8 c2 d4 4c 2a
       9.259293e-12 1.715305e-11 -2.2120401e-14 1.8192655e-13
000020 fe d8 6e 2a 1e fc 5d 28 20 0d 4a 2b de 3b 54 2b
       2.121393e-13 1.2322634e-14 7.178303e-13 7.540061e-13
000030 a9 a5 08 ab ae b0 63 aa 80 58 e0 2c c2 21 85 28
       -4.8546806e-13 -2.0222948e-13 6.3762884e-12 1.4780606e-14
000040 40 e1 bd a7 2d aa 17 ad 02 4c d3 ad e5 a8 d3 2a
       -5.2702254e-15 -8.621143e-12 -2.4021677e-11 3.7598323e-13
000050 32 9e d3 aa f6 43 b7 aa 60 d8 33 a7 e2 f0 3e aa
       -3.75909e-13 -3.2554488e-13 -2.4958537e-15 -1.6958963e-13
000060 32 83 68 2b 42 81 41 2d 6c 25 79 2a db f7 2a 2b
       8.260503e-13 1.0999481e-11 2.2128626e-13 6.07401e-13
000070 1c 21 92 aa 84 cd 60 2a 21 aa 0e ab d2 cf b8 2a
       -2.5957784e-13 1.9966499e-13 -5.0684636e-13 3.282917e-13
000080 00 4c 42 2b 4c 39 9c a8 52 dd 6e 29 42 0a 89 a9
       6.9028117e-13 -1.7344328e-14 5.303858e-14 -6.0858016e-14
000090 03 b5 33 2b 73 75 23 2c 62 ee 83 28 c4 e4 c8 29
       6.384478e-13 2.322889e-12 1.4647304e-14 8.921469e-14
0000a0 d2 19 75 a8 e8 b8 fe 28 cb 07 34 ab 4c 4b 8e 2a
       -1.3605831e-14 2.8279855e-14 -6.395966e-13 2.5276515e-13
0000b0 37 d0 9a 2a 70 f1 78 2a e1 b7 47 2c f5 68 94 a8
       2.7500373e-13 2.211059e-13 2.8381674e-12 -1.6476819e-14
0000c0 fd 6e ec 2a 10 20 5e ac f6 0b ca 2b 43 cc 47 aa
       4.1999035e-13 -3.1565896e-12 1.4356283e-12 -1.7745618e-13
0000d0 28 4e 20 28 f3 10 ad a9 0f 6d 32 29 b7 47 cd 28
       8.898732e-15 -7.6856836e-14 3.9618533e-14 2.2790673e-14
0000e0 87 b0 1b 2a fe 37 d0 ac 02 fe 84 a8 28 b6 37 2a
       1.3828011e-13 -5.917932e-12 -1.4765102e-14 1.6316863e-13
0000f0 ad 2b c1 a9 2e b8 56 2a 74 86 f3 a8 ac 7f 58 2a
       -8.578498e-14 1.9070918e-13 -2.703673e-14 1.9228949e-13
000100 ad 94 8b ab 12 51 85 29 6b 0b e6 a7 53 c9 0e 2a
       -9.91781e-13 5.92045e-14 -6.3850203e-15 1.2681982e-13
000110 f0 a2 2e ab 56 ec 50 2b 8e 1a cd a8 b8 68 76 29
       -6.204334e-13 7.4224427e-13 -2.2771088e-14 5.4713802e-14
000120 92 40 58 27 32 a3 e5 a8 95 30 99 aa a8 86 33 aa
       3.0011025e-15 -2.5494882e-14 -2.721197e-13 -1.5945112e-13
000130 d6 1a fd 2a 4e 31 89 a8 b6 4b 63 2c 42 40 77 29
       4.496045e-13 -1.5231438e-14 3.2300668e-12 5.4900752e-14
000140 e9 0f 95 29 6c dd 55 2b a1 0a 34 ab 65 40 a5 a9
       6.619689e-14 7.5980086e-13 -6.3963597e-13 -7.3386426e-14
000150 2c 0a 10 aa 2e 31 e3 a8 7a fb fd a8 70 7a c2 a9
       -1.2793298e-13 -2.5223391e-14 -2.8197703e-14 -8.63657e-14
000160 35 3e 52 a9 c8 10 80 2a cc b9 29 a9 d2 29 0d a9
       -4.6683323e-14 2.2749012e-13 -3.768669e-14 -3.1344563e-14
000170 9b 23 b9 28 a0 51 18 a7 34 e0 f8 28 e3 a3 00 aa
       2.0554567e-14 -2.1138486e-15 2.7630764e-14 -1.1425543e-13
000180 28 b8 14 2c a2 46 1b 2a d1 5c 33 a8 0e c8 95 28
       2.1134292e-12 1.3791271e-13 -9.956622e-15 1.6629083e-14
000190 cb fb 16 ab 04 88 93 2c 58 29 26 a9 a7 34 fd 28
       -5.364014e-13 4.193092e-12 -3.6895264e-14 2.8111477e-14
0001a0 b4 e2 44 a9 f8 d5 c3 a8 47 15 07 aa ec 80 28 a9
       -4.3717376e-14 -2.1742143e-14 -1.1997791e-13 -3.7415316e-14
0001b0 d6 d5 70 aa 10 80 81 a5 7c 98 87 a8 d4 4f 05 a8
       -2.1390471e-13 -2.2464711e-16 -1.505414e-14 -7.400293e-15
0001c0 dc d6 07 aa 35 9c 2a 2d 22 22 91 2b de 61 0e a8
       -1.2064953e-13 9.698066e-12 1.0312343e-12 -7.903805e-15
0001d0 d4 29 06 29 6c 95 93 29 08 31 fe 2a 89 d5 18 aa
       2.9790257e-14 6.554032e-14 4.5153486e-13 -1.3574397e-13
0001e0 2a 3f 9c aa 98 2c b3 aa e6 ad 15 2a c8 f0 dc a8
       -2.7754996e-13 -3.182773e-13 1.3294192e-13 -2.4529329e-14
0001f0 7f bb 83 29 04 0f 38 2a 4e fc 6b a9 8c be 2c 29
       5.850094e-14 1.6347693e-13 -5.239932e-14 3.8356945e-14
000200 b4 7a 48 2d 55 28 0a 2b 88 4c ce 28 6e bf 69 a9
       1.1395929e-11 4.908342e-13 2.2903784e-14 -5.1902432e-14
000210 f4 1d 82 ac e2 ce 38 2d 8f d8 49 2b b4 78 a3 29
       -3.6981477e-12 1.0505126e-11 7.171008e-13 7.259593e-14
000220 e0 69 1e a8 cc 50 c8 a9 93 0c 4a ab a0 9e c8 2a
       -8.79372e-15 -8.8958e-14 -7.1782267e-13 3.5637205e-13
000230 a9 9e c3 ab c4 7e d2 28 ce dc 23 2d f6 80 01 a9
       -1.389962e-12 2.336966e-14 9.314506e-12 -2.875561e-14
000240 4f 62 38 2a 9a 60 6a ac 33 1e 60 ac 2e 83 8d a8
       1.637659e-13 -3.3307025e-12 -3.1849078e-12 -1.5711035e-14
000250 a1 e8 10 aa 96 11 82 28 03 b9 bf a8 bb 1f 59 2b
       -1.2870479e-13 1.4440526e-14 -2.1285496e-14 7.713792e-13
000260 b3 da 19 2b 70 e3 38 ad 34 c9 9e a9 dd 89 f5 aa
       5.4660025e-13 -1.050969e-11 -7.051513e-14 -4.3616404e-13
000270 d2 a1 ab aa e2 da 64 aa cc c1 b5 2a d6 12 ee a8
       -3.0487987e-13 -2.0326408e-13 3.2286532e-13 -2.6431477e-14
000280 76 90 5b ac 5a 22 a0 2a 92 db 58 a9 68 76 23 ab
       -3.1201964e-12 2.8445546e-13 -4.815208e-14 -5.8073555e-13
000290 f0 55 3f aa 66 6b 2b ad f0 1d 71 aa df 81 d9 29
       -1.6994023e-13 -9.744072e-12 -2.1415487e-13 9.659265e-14
0002a0 25 a1 03 2a 00 08 be 25 df 95 a2 a8 46 09 16 2a
       1.1691046e-13 3.2965167e-16 -1.805061e-14 1.3325894e-13
0002b0 18 11 fe 29 9a 06 af a9 9f 65 28 ad ec a7 44 2a
       1.1282831e-13 -7.7727064e-14 -9.572259e-12 1.7466557e-13
0002c0 d4 c6 91 29 db 36 6c 2d c3 55 2b 2c f9 ab b5 aa
       6.473785e-14 1.3427227e-11 2.4348169e-12 -3.227139e-13
0002d0 29 a7 e0 29 d4 c3 53 2a 77 a2 c7 28 c5 91 9b 2a
       9.976596e-14 1.8808506e-13 2.2163896e-14 2.763468e-13
0002e0 ef 43 17 2b 91 9e 90 2d 89 86 ae a9 73 21 59 aa
       5.3740253e-13 1.6441322e-11 -7.7504904e-14 -1.9285077e-13
0002f0 37 61 9c a9 9b b6 93 aa fd 29 ad aa 03 96 39 ab
       -6.944656e-14 -2.6239154e-13 -3.0760109e-13 -6.5933386e-13
000300 3a b2 96 ad 22 53 e2 2b 92 b9 b2 2a 6a 91 51 2a
       -1.7132174e-11 1.608134e-12 3.1747917e-13 1.861338e-13
000310 e5 7d 3e ac 87 0a 42 af 5a e0 05 ab a5 d1 3c 2a
       -2.707051e-12 -1.7647937e-10 -4.756244e-13 1.677049e-13
000320 74 2f ce a9 fc 5f 2e a8 1f 7b 1c ac 8a 4d a9 2b
       -9.1564695e-14 -9.679754e-15 -2.223728e-12 1.2029694e-12
000330 72 2d 93 2a a5 66 70 2b 54 76 88 ae 54 e5 8a aa
       2.614398e-13 8.5407576e-13 -6.205583e-11 -2.4672853e-13
000340 60 2d 41 2a 8a e0 8d ae 61 c2 fc ac 7c 9d 0e 2a
       1.7157586e-13 -6.451824e-11 -7.183851e-12 1.2666772e-13
000350 f4 9b bc ab bf 03 90 2b cd 77 f4 a9 d2 19 d6 ac
       -1.3401489e-12 1.0232855e-12 -1.0856559e-13 -6.0851124e-12
000360 3d 95 07 ac 81 24 0c 2c 76 26 0c 2b 89 1b 1a ac
       -1.9267498e-12 1.991546e-12 4.9791367e-13 -2.1900001e-12
000370 a4 1b 86 a9 e0 79 c0 28 50 4a 50 ab 5d af 7d aa
       -5.95559e-14 2.1369137e-14 -7.3999574e-13 -2.2531755e-13
000380 47 60 25 ae c9 84 ab 2b 21 cd e5 29 1d f6 3a aa
       -3.7602168e-11 1.2187136e-12 1.0205227e-13 -1.6605506e-13
000390 e8 d2 27 ab 5e 45 9d 2d b0 ef 23 a9 58 ec 75 29
       -5.962301e-13 1.7879639e-11 -3.6401166e-14 5.4605924e-14
0003a0 02 a8 b4 2a 12 22 00 aa 75 38 96 ab 74 37 6f 2a
       3.2091002e-13 -1.1380504e-13 -1.0673811e-12 2.1246703e-13
0003b0 93 45 e8 2a 00 7e 93 27 1b 6d 04 ae 2c e0 8e a9
       4.1259755e-13 4.0937306e-15 -3.011023e-11 -6.3449544e-14
0003c0 b6 61 37 29 17 3a 01 2e 55 4b 5f 2c 10 42 11 2a
       4.0718913e-14 2.93828e-11 3.1732024e-12 1.2901507e-13
0003d0 77 f7 ca a9 ba 83 10 28 07 f6 1b a9 93 b6 f8 aa
       -9.0135303e-14 8.022169e-15 -3.463031e-14 -4.4180336e-13
0003e0 40 0a e2 2b 82 bb 0c ac ed e4 6e 2b e8 fe c8 2b
       1.6061111e-12 -1.9999284e-12 8.4872284e-13 1.4281605e-12
0003f0 dd 08 7f 2a 59 03 44 2a 40 95 a7 aa f0 36 46 2a
       2.2651625e-13 1.7409458e-13 -2.9768722e-13 1.7604993e-13

item_emb.weight f4 [1682, 32]
000000 2d a5 c7 ab ed ca ee 2a 8e 9b 31 a8 16 2a 84 aa
       -1.4185646e-12 4.24181e-13 -9.859204e-15 -2.3477113e-13
000010 46 d0 2d 2b 5e f7 27 ac b6 a0 56 ab 1c d9 01 2a
       6.1750984e-13 -2.3869444e-12 -7.6251104e-13 1.1532827e-13
000020 54 36 1d aa 02 9b ce a9 14 06 24 ac 55 e2 e8 aa
       -1.396325e-13 -9.175127e-14 -2.3309176e-12 -4.1368528e-13
000030 c6 a8 f0 2b fe be 9b 28 88 e4 12 ad 20 48 1d a9
       1.709987e-12 1.7291287e-14 -8.349883e-12 -3.492356e-14
000040 2c 33 20 a9 c0 a8 72 2c d0 4d d3 ab 52 1c 80 aa
       -3.557152e-14 3.4483943e-12 -1.5014049e-12 -2.275702e-13
000050 73 fe 9e aa b0 c2 b6 a9 98 b2 7e 29 36 19 88 aa
       -2.8242998e-13 -8.1161965e-14 5.6554235e-14 -2.4175947e-13
000060 f2 0e 87 ab f2 41 44 aa 53 f8 73 aa 8c fc ee 28
       -9.596475e-13 -1.7431176e-13 -2.166889e-13 2.6532833e-14
000070 48 55 27 a8 ea 54 91 28 6c d8 b9 a9 88 e0 f1 2a
       -9.288855e-15 1.613506e-14 -8.2531936e-14 4.2966e-13
000080 da 79 8a 2c 96 be 50 aa c7 1f bc a9 97 f8 aa 2a
       3.935724e-12 -1.8540234e-13 -8.3543896e-14 3.037056e-13
000090 d5 11 44 2c d3 b4 a9 2c 6f 30 01 aa fd b1 9d 29
       2.7863174e-12 4.8233444e-12 -1.1474305e-13 7.0030766e-14
0000a0 6b 90 c5 28 a9 f0 9c 28 95 79 2d aa 0b 6c c8 aa
       2.1934025e-14 1.7423849e-14 -1.5407669e-13 -3.5602107e-13
0000b0 f0 a0 46 ab d2 7e e2 a9 03 7a 0a 2c 3a c5 d6 28
       -7.0567076e-13 -1.0058416e-13 1.967871e-12 2.3844306e-14
0000c0 25 f0 f4 28 f4 b2 18 2e 23 7e 0a ac 40 52 2a aa
       2.7193588e-14 3.471974e-11 -1.9681e-12 -1.512757e-13
0000d0 dc a1 85 2a bb 14 72 aa 60 73 49 a9 c7 57 a2 2a
       2.3737858e-13 -2.150111e-13 -4.4731037e-14 2.8837889e-13
0000e0 90 8a 25 ab 64 10 cd ab 6d 24 02 aa 2d 08 3d 2a
       -5.881207e-13 -1.4570675e-12 -1.1558957e-13 1.6789409e-13
0000f0 6e 74 13 2a 97 03 89 a9 49 25 fb 29 72 5e 92 a9
       1.3096617e-13 -6.084645e-14 1.1153107e-13 -6.500086e-14
000100 3a 38 b1 2c 0d f9 22 2a 51 b9 f6 29 23 84 3a aa
       5.036885e-12 1.4474897e-13 1.0956742e-13 -1.6565963e-13
000110 4e c1 66 ab b0 f6 02 ae ce 3b bc 28 6b 7a 64 aa
       -8.198068e-13 -2.977768e-11 2.0898129e-14 -2.029294e-13
000120 6d dc 92 29 90 23 b9 a9 57 19 81 2a a0 0b 24 2b
       6.52194e-14 -8.2218195e-14 2.2932586e-13 5.8280637e-13
000130 a8 27 37 2a 7a 8d 61 a9 7c 58 e2 ac a5 1c 0a a9
       1.6267424e-13 -5.0082747e-14 -6.43313e-12 -3.0667e-14
000140 85 53 d8 27 f4 88 9f ad cb 21 4c ab a5 82 84 29
       6.0042595e-15 -1.8137027e-11 -7.2522256e-13 5.884641e-14
000150 32 84 34 2a 5a f5 9a aa 66 70 55 a9 cc ba 8b 2a
       1.6033076e-13 -2.7526142e-13 -4.739299e-14 2.4820976e-13
000160 65 f2 04 29 02 af 06 2c 1a d7 0d aa ec cb 11 29
       2.952013e-14 1.9139694e-12 -1.2597944e-13 3.2373342e-14
000170 db 35 a5 2a 05 42 f9 a9 5f 1e 74 29 7c db 4a 29
       2.9347258e-13 -1.1069274e-13 5.4205226e-14 4.5043383e-14
000180 a8 2d a0 ad e3 ff 33 aa 31 3c 6d 2a dc 67 21 aa
       -1.821017e-11 -1.5987172e-13 2.1070712e-13 -1.4335706e-13
000190 01 78 0a 2c 5a de 31 ad 78 85 6c a9 20 25 f3 a8
       1.9677595e-12 -1.0110657e-11 -5.2518292e-14 -2.699452e-14
0001a0 17 f1 fd a9 e7 e4 93 29 d2 79 9b aa c7 44 39 29
       -1.12772794e-13 6.5678196e-14 -2.761806e-13 4.1137907e-14
0001b0 12 98 83 2b 4a 6b 15 2a 83 0e e8 ac a1 f1 7f a9
       9.350318e-13 1.3271082e-13 -6.5954477e-12 -5.6830954e-14
0001c0 96 30 a7 2a a0 a2 47 ab 4a 1c 89 ac bc bb 00 29
       2.9698872e-13 -7.092469e-13 -3.896915e-12 2.8584543e-14
0001d0 7e 4d d9 2a b4 70 9d 29 bc a9 c0 28 40 5c d1 aa
       3.8600714e-13 6.9917515e-14 2.1389893e-14 -3.718987e-13
0001e0 e2 0e 73 2b f5 2b a6 ab c2 c3 16 a9 46 b4 d7 29
       8.6351596e-13 -1.180721e-12 -3.3476484e-14 9.5791905e-14
0001f0 2f 61 41 a9 ec ea 65 aa e9 3a 93 2a 30 c1 f0 aa
       -4.2938902e-14 -2.0420791e-13 2.6153323e-13 -4.2766615e-13
000200 46 bb 97 2a 2f 9e 88 aa a6 43 27 27 bb b4 e3 a9
       2.6952935e-13 -2.4268215e-13 2.3212578e-15 -1.0112177e-13
000210 8e 7b 48 aa 94 cc 56 2c 4e d6 1b aa 81 0a b6 aa
       -1.7806435e-13 3.0524793e-12 -1.3841117e-13 -3.2336983e-13
000220 fc b8 cd a7 ff 79 25 29 d2 c9 f9 aa d9 77 17 ab
       -5.709949e-15 3.6743175e-14 -4.4371326e-13 -5.38123e-13
000230 bd d5 cc ab be 98 0b a9 56 e0 22 2d 7f d0 5b 28
       -1.4554396e-12 -3.0996683e-14 9.2584464e-12 1.22021525e-14
000240 58 64 04 aa 93 26 b0 2d 9c dd 21 a9 94 1f e3 a9
       -1.1758769e-13 2.0026014e-11 -3.5941397e-14 -1.0086303e-13
000250 aa dc 8a 29 43 b8 20 aa 8b 55 65 29 3e 85 4f 29
       6.16671e-14 -1.4274783e-13 5.092241e-14 4.6078802e-14
000260 b2 a4 f6 aa 5a c5 c6 ab 2e 46 b2 29 01 6b cd 2a
       -4.3812659e-13 -1.4123522e-12 7.916962e-14 3.6489564e-13
000270 68 6a 9d aa 47 1e 2d aa 16 87 76 aa d8 fc eb 29
       -2.7962637e-13 -1.5375991e-13 -2.1896056e-13 1.0479958e-13
000280 cc e7 a2 ac 78 a0 d8 a8 8d 7c a0 29 f9 68 04 aa
       -4.6300516e-12 -2.405041e-14 7.1270335e-14 -1.1760375e-13
000290 34 47 49 aa c0 dc 44 ad d3 67 39 a9 44 d5 16 2a
       -1.787709e-13 -1.11903264e-11 -4.1168305e-14 1.3396668e-13
0002a0 11 ee 66 a9 fe c9 00 2a 5c bd c6 2a 47 79 9f 2a
       -5.127675e-14 1.1438764e-13 3.530326e-13 2.8328227e-13
0002b0 8c 05 f3 aa 49 30 f2 27 07 1c 2d 2c aa 69 1e aa
       -4.316932e-13 6.7220844e-15 2.4600337e-12 -1.4069879e-13
0002c0 d6 b8 15 a9 a3 df 95 ae 4f 7e 51 2c 71 bc d0 2a
       -3.3244966e-14 -6.8154614e-11 2.9770802e-12 3.707898e-13
0002d0 2f 14 04 ab 00 e7 08 aa 1b 5e 77 aa e3 38 49 2a
       -4.692383e-13 -1.2159371e-13 -2.1970656e-13 1.7872123e-13
0002e0 b2 31 9a aa 0d f5 80 2b 42 8c ec 29 7d bd 97 2a
       -2.7390378e-13 9.162962e-13 1.0504836e-13 2.6954472e-13
0002f0 f0 2b 5b aa 50 4f 0c 29 d2 7a f2 a9 76 df 4b 29
       -1.9466351e-13 3.1155037e-14 -1.0768265e-13 4.5268876e-14
000300 2c 86 af ab 06 2b 2c 29 cc d8 15 29 6c d8 d7 a8
       -1.2471738e-12 3.822899e-14 3.3272687e-14 -2.3963653e-14
000310 12 c8 36 2b 6e 10 7e ae 02 cf b3 aa 10 96 7f 2a
       6.493704e-13 -5.7767506e-11 -3.1940428e-13 2.2700613e-13
000320 6c ba a3 29 fb 06 aa 29 cc bd e9 a9 a7 9b 8a aa
       7.270993e-14 7.5507275e-14 -1.0380203e-13 -2.462173e-13
000330 aa bd 35 2b 13 f0 16 aa 92 93 f6 ad bf eb 96 a8
       6.456733e-13 -1.3405969e-13 -2.8032496e-11 -1.6755584e-14
000340 a9 7a 1c 2a 81 c4 d8 2d 6b 4b d4 ab 56 0e 2c aa
       1.389814e-13 2.4643622e-11 -1.5084439e-12 -1.5281643e-13
000350 86 4a 4c 2b c9 e1 ba aa 89 c2 10 aa 08 26 10 a9
       7.257878e-13 -3.3196907e-13 -1.2857262e-13 -3.200741e-14
000360 25 8f 88 2b 39 99 86 ab bc 69 52 aa a4 82 d9 aa
       9.703112e-13 -9.5638e-13 -1.8688431e-13 -3.8637594e-13
000370 2f b8 15 ab f7 43 90 29 8d 82 8b a8 69 31 59 aa
       -5.319104e-13 6.4066746e-14 -1.5488717e-14 -1.9290614e-13
000380 6a ba 79 ac f6 53 96 2a ec 38 38 29 68 ce 1b ab
       -3.5488509e-12 2.6703612e-13 4.090558e-14 -5.535351e-13
000390 88 de 5b aa a2 f8 2e 2e d4 fa 43 a8 2c d8 1f aa
       -1.9528313e-13 3.978385e-11 -1.0879064e-14 -1.4197037e-13
0003a0 e7 9a cf a9 8c e1 1f a9 35 ab 38 2b 45 dc b1 2a
       -9.219518e-14 -3.5500723e-14 6.560753e-13 3.159436e-13
0003b0 e2 54 f7 aa 52 1a 1c 2a aa b8 c4 ac 26 83 88 a9
       -4.3934913e-13 1.3864715e-13 -5.591157e-12 -6.062364e-14
0003c0 5a 21 42 2a 80 fb 2e ae 9d b3 82 ac 13 45 c2 2a
       1.7242232e-13 -3.9786396e-11 -3.7147633e-12 3.4509253e-13
0003d0 66 09 ac a9 ec 7d 66 aa 7b 89 93 29 d5 79 b5 aa
       -7.639965e-14 -2.0471792e-13 6.5519604e-14 -3.2236597e-13
0003e0 b4 c2 8c 2a 82 7a e7 ab d1 a0 9e a9 43 af ed a8
       2.5004098e-13 -1.644754e-12 -7.044507e-14 -2.6388293e-14
0003f0 78 01 cf 29 10 2a 85 aa 91 7a c9 aa 4a 25 08 2b
       9.1929014e-14 -2.3654733e-13 -3.578982e-13 4.8368655e-13
