data/BPR/bpr_model.pt (torch, 673973 bytes, 2 tensors)

user_emb.weight f4 [943, 64]
00000000: 765e 0e3e ccd3 0ebe ba7d 8a3d 5e95 0abe
00000010: 3d34 163e dc9e 10be cc3d 05be 48b4 6abd
00000020: 96b0 083e 4779 ddbd 9846 91bd e0f6 f63d
00000030: bc3d ff3d 8b25 a5bd 11b8 d8bd b49c fb3d
00000040: f852 02be 3eac 0c3e dc6d fabd 7ee4 a83d
00000050: 8b88 143e 3319 003e cc57 ff3d 7ab6 12be
00000060: fa13 1fbd 215c 0b3e 0069 18be 326a 02be
00000070: 180a 11be 17b1 e63d 3b3a 153e 314c d23d
00000080: e2b8 12be 20ab 113e fa7c 143e ef56 50bd
00000090: 4835 efbd bfcd 38bd 6ec9 a83d c5f1 f9bd
000000a0: d2ca 0bbe b125 edbd 7ce0 0abe fc77 13be
000000b0: 8b68 143e 0f6e dabd bc64 113e 2f56 163e
000000c0: bd8f 883d 4053 003e 7f9a 3abd 8277 143e
000000d0: 05a9 14be 744d d03d f217 a1bd b9a5 3e3d
000000e0: 407c f33d 6987 12be 359f 8f3d 4eb1 09be
000000f0: 6bd7 0e3e b71b 0ebe fe50 153e af06 313d
00000100: 5456 e43d 345f 11be df08 7d3c 4afc e8bd
00000110: 0f82 073e 4e6b efbd a27d b2bd 5516 d03d
00000120: 76b3 f73d 79c9 01be de35 b13d a885 ed3d
00000130: 0a7b 7dbd bf0c 733d 6733 85bd f41e ffbc
00000140: 1242 dcbd ad66 de3d a20b acbd 9e70 9e3d
00000150: 1461 8a3d acbe 5a3d 12c4 e93d 27f3 f2bd
00000160: 36b4 743d 0fee c7bc 1c0d d9bd 6372 ebbb
00000170: c5ca d7bd 0f6e 043e 279b f13d 9339 383d
00000180: 3b81 09be 30bd d73d ebbd d23d 8ad7 b6bd
00000190: 85dd 11be 05f6 593d 74f7 223d 770f 73bd
000001a0: 6db6 f5bd ab94 08be 049e d4bd 7774 13be
000001b0: d652 d13d 0466 0bbd 5068 f13d d080 0b3e
000001c0: 64bb 9abd d5f1 fc3d 9874 9ebd 2528 0c3e
000001d0: 3f6d a3bd 3d75 c23d 3390 223d 7e83 55bd
000001e0: 8cac e93d b852 a8bd 94be dc3d 1492 04be
000001f0: 0694 5b3d 632d 04be 84cd bf3d 4d4d b0bd
00000200: 531b be3d b27b cebd 7cc4 82ba b28f 7abd
00000210: 2be7 da3d 689d b6bd d76b 79bd 7923 8c3d
00000220: 43f6 c13d 1909 cdbd 8424 893d 910e 963d
00000230: bf11 02bd 193e 683c 57bc 3cbc 66c3 9abc
00000240: 13ef 4bbd c220 773d 162b 22bd d342 473d
00000250: 8a18 89bc 0900 1f3d b86c 943d 4fb4 bdbd
00000260: 8f5e 1f3d 5562 4cbd 17ad 78bd 49b9 c2bb
00000270: 5193 7abd fddb db3d 2136 9b3d a8fe bf3c
00000280: 7e68 f1bd fef8 9f3d 42d9 883d 9fdd b2bd
00000290: 8ef3 c8bd e417 003d 8287 143c 68a4 dabc
000002a0: 57cd b0bd 10f6 b3bd 5d45 aebd fa46 debd
000002b0: 114c 3c3d 346d 92bc efa5 a63d 470a b73d
000002c0: 90ab 10bd 097a 803d 69c0 8fbd 93be ea3d
000002d0: 0c95 8abc 08a2 613d 01e2 f73c 3b13 c7bc
000002e0: 7e9e 973d 3097 a5bc 10fa bd3d b5dc cbbd
000002f0: f5bb ef3c 72d8 bcbd 772b c53c d1bc a6bd
00000300: d40e 883d 2b92 8ebd 115e 23bd 1637 b2bc
00000310: 20a6 ac3d 2ee5 61bd 0013 bdbc defd 773d
00000320: b496 7f3d 38b7 90bd bb00 7e3d c52a 443d
00000330: 9629 50bd 7f65 463d a1ef c53c 9d0c 58bd
00000340: 3528 5fbc ef39 0f3d 33f2 e0ba 4b72 a73c
00000350: daf2 42bd 45a7 6f3c 4fc8 453d 77a0 56bd
00000360: c6bd 553d 3ab3 7bbd 78ff 27bd d253 bb3c
00000370: c6fc 24bd a27f 913d 519c 323d 5e0b d5bb
00000380: d2cd a2bd 1f14 633d f443 1b3d ebec 87bd
00000390: c705 98bd 8795 663d 2763 06bd eded 58bc
000003a0: 70a3 7cbd 0741 8bbd 9dcf 3ebd a9db 9cbd
000003b0: 92da 58ba 0226 473c 500b 533d 9a31 8f3d
000003c0: 71d0 4fbd 72f6 1c3d 6265 4dbd da16 b53d
000003d0: 279b 7f3c e0d4 8e3c 2c6e 6e3d 6bea 5abd
000003e0: c379 7f3d 0ceb 3d3c 16ff 6d3d b04e 85bd
000003f0: 0bbb 953a a3c2 81bd 0f89 b13c 3114 87bd
0.13903221 -0.13947982 0.06762262 -0.13533542 0.14668365 -0.141231 -0.13011855 -0.057300836
0.13348612 -0.108141474 -0.07093543 0.120588064 0.12462947 -0.080638014 -0.10581983 0.12285748
-0.12726963 0.1373758 -0.12227985 0.082467064 0.14505212 0.12509613 0.12467918 -0.14327422
-0.03883741 0.13609363 -0.14883804 -0.12735823 -0.14164007 0.11264246 0.14572994 0.102684386
-0.1432834 0.14225435 0.145008 -0.050864156 -0.116800845 -0.04511809 0.08241545 -0.12204317
-0.13651589 -0.11579455 -0.13562196 -0.14401239 0.14493005 -0.10665523 0.14198583 0.14681314
0.06668041 0.12531757 -0.045557495 0.14498714 -0.14517601 0.10171023 -0.07865895 0.046544764
0.11888933 -0.14309467 0.07012788 -0.13446543 0.13949363 -0.1387776 0.14581677 0.043219265
0.11149278 -0.14196473 0.01544401 -0.11376245 0.13233207 -0.116903886 -0.08715369 0.101605095
0.12094776 -0.12674512 0.086528525 0.115977585 -0.061884917 0.059338327 -0.06503945 -0.03114269
-0.107547894 0.108594276 -0.08400656 0.07736324 0.067567974 0.053404495 0.114143506 -0.11862784
0.059742175 -0.024405507 -0.105982035 -0.007185267 -0.10536722 0.12932609 0.11797171 0.044976782
-0.13428204 0.105341315 0.1029013 -0.089278296 -0.14244659 0.053213138 0.03978677 -0.05934092
-0.119976856 -0.13337962 -0.103817016 -0.14399897 0.10220878 -0.034032837 0.11787474 0.13623357
-0.07555273 0.12350813 -0.07737082 0.13687189 -0.079798214 0.09495018 0.0396883 -0.052127354
0.11409864 -0.08218902 0.107785374 -0.1294635 0.053607963 -0.12907939 0.09365371 -0.08608494
0.092825554 -0.10082187 -0.000997677 -0.061172195 0.10688623 -0.089167416 -0.06089386 0.06842703
0.09470799 -0.10011501 0.06696418 0.07326997 -0.031755205 0.0141749615 -0.011519513 -0.018892001
-0.049788546 0.060333975 -0.03959187 0.048647713 -0.016735334 0.038818393 0.07247299 -0.09262907
0.038908537 -0.049898464 -0.060711946 -0.005942498 -0.061175648 0.10735319 0.07578684 0.02343686
-0.117875084 0.07811163 0.06682064 -0.08733677 -0.09812079 0.031272784 0.009065511 -0.026689723
-0.086329155 -0.08787167 -0.08509324 -0.108533815 0.04597098 -0.017874338 0.08137118 0.08937507
-0.035319865 0.06273276 -0.07019121 0.114621304 -0.016916774 0.055086166 0.030259134 -0.024301162
0.07403277 -0.020213693 0.09276211 -0.09954206 0.02926443 -0.09220971 0.024068577 -0.081414826
0.06643453 -0.06961473 -0.03988463 -0.021754783 0.08430123 -0.055150203 -0.023080349 0.06054484
0.06239958 -0.07066196 0.062012415 0.04789235 -0.05082091 0.048436638 0.024162116 -0.052746404
-0.013620426 0.03496736 -0.0017162025 0.020440241 -0.047594883 0.0146272825 0.048286732 -0.052399125
0.052182935 -0.06145022 -0.04101512 0.022867117 -0.040280126 0.07104422 0.043606106 -0.006501599
-0.07949413 0.05543911 0.037906602 -0.066369854 -0.07422977 0.056294944 -0.032809403 -0.01324032
-0.061679304 -0.06799512 -0.046584714 -0.07659084 -0.00082723156 0.012155058 0.05152446 0.069918826
-0.050735895 0.038320966 -0.050145514 0.08842249 0.015600956 0.017435491 0.058210537 -0.053446215
0.06237198 0.011591684 0.058104597 -0.06509149 0.0011423541 -0.06335952 0.0216718 -0.06595648

item_emb.weight f4 [1682, 64]
00000000: 435d f53e a47f edbe e005 503e 2411 d7be
00000010: cab4 023f 0884 eabe 0d0b babe deec 853d
00000020: 3d6b e83e 7576 aebe fb1d a53d 9bfb da3e
00000030: 75c9 c33d 9c95 0dbd 6e3a 74be 5932 363e
00000040: 7d6a d5be 055d df3e f2d2 a6be b587 743e
00000050: e899 b73e 6a0d 863e 1396 c63e 1b76 e5be
00000060: fc15 99bc 7f05 5d3e f5b7 d7be 50c7 73be
00000070: 3165 e0be 7921 cf3e 3887 f93e 526f 773e
00000080: ff73 fabe 2e25 df3e 9481 eb3e 1301 64be
00000090: 043d e3be f6a1 54bd f7c8 423e 160d 98be
000000a0: c7d3 f2be 42c0 debe 7acf e4be 5677 08bf
000000b0: ec5e e83e 7f55 46be 93af f33e 6870 083f
000000c0: 600d 783d 3847 ee3e 795f bfbd cbe4 023f
000000d0: 1f06 babe 19ca 9f3e 5ef1 9bbd af93 033c
000000e0: 4b16 d33e 9eb3 b6be 47bd 8d3e 789c d7be
000000f0: 7f5a c73e a9f7 eabe 3615 e33e 0c5e 25bd
00000100: 8fd4 303e 8ec3 25be 70b2 b83d 095c 27be
00000110: e9db 4e3e 514f 42be f739 42be eadd 3dbe
00000120: 811b 453e 8f17 15be b333 e1bd 028e 173e
00000130: 6af1 713e 9cbd 2dbe ec67 febd 4e43 363e
00000140: aa4a 3ebe 40ea 393e 781e 30be 8723 073e
00000150: 0b49 453e 9d66 4d3e bb63 3b3e aeeb 39be
00000160: d8b0 67bd 7089 433e 9d05 5cbe d57f 59be
00000170: 5208 4cbe b9b6 2b3e bb39 433e b281 2a3e
00000180: b589 4dbe c125 453e 511b 523e b4b7 a3bd
00000190: f7c3 ecbd c570 c9bd d1d4 c43d e406 3fbe
000001a0: 4027 1abe e7f4 20be 24aa 3abe c5fa 45be
000001b0: 073e 423e f032 08be f03a 4e3e b902 413e
000001c0: c35d 0a3e d566 4b3e 2a8f 60bc 8376 493e
000001d0: 8826 3fbe 158a d63d 02fb 01be 9e52 bc3d
000001e0: 8eee 303e 71b7 4fbe 71f1 663d 06d5 febd
000001f0: 0d7b 343e 9c75 3abe 5a65 693e 9f53 653d
00000200: 3064 f73d 8f45 c8bd db02 bf3c 6598 e8bd
00000210: 1607 003e 23ff fdbd 720c 0ebe 1b2a c43c
00000220: 5a1a dc3d 9709 89bd 3dd0 803d b61a c53d
00000230: 9623 d73b 7c63 dbba 1617 4cbd a17c e23c
00000240: fbe8 cbbd ec1d 143e 1e59 adbd e799 ca3d
00000250: b8ec ca3d 0744 9a3d 00b2 e93d bb0c d4bd
00000260: 4f93 bb3c 5df5 6e3d 49ad d9bd dc98 cabd
00000270: 9bb5 01be accc e13d ce30 053e 070c 6c3d
00000280: 4e53 ddbd c5e6 bf3d 00ee e33d d284 71bd
00000290: 13a6 f4bd eebb 59bd cbb3 873d d3c1 cdbd
000002a0: 4db9 fabd df3f d0bd bc00 dabd 62b4 10be
000002b0: 375e f13d bc2d 7dbd 5769 cd3d 3060 083e
000002c0: b82a 773c dde5 ed3d a1da 93ba b67d 113e
000002d0: ed68 febd 46c4 c43d 8a9e 0cbd f31b 393d
000002e0: aacc d53d 271b bfbd d107 e73d 1ffb dcbd
000002f0: 49b7 0d3e db4a f5bd c76b f93d d3f9 3cbd
00000300: 5a24 713e 0207 84be 1b0e 0c3e ee6e 62be
00000310: 7354 853e 8610 8bbe b0a4 6abe befa 81be
00000320: 388a 803e b250 37be b6d3 24be abe7 633e
00000330: f45a 973e 3b01 55be 146c 51be 0bc8 883e
00000340: 4e1f 8ebe 2820 933e 841f 82be ca65 063e
00000350: ff04 8e3e 3c06 913e 8d31 643e 2023 81be
00000360: bf24 f0bd 23b3 8d3e 72ba 99be c7f5 8ebe
00000370: 0698 73be 9317 423e b16b 893e ac4b 973e
00000380: b7fd 84be 3c43 803e b302 923e 2888 a0bd
00000390: 6459 35be d0a0 08be 1513 043e da40 6fbe
000003a0: 05a2 72be 3c1d 89be 4567 74be 38b8 8ebe
000003b0: c504 833e 0f14 3ebe 6d4c 893e 9cd7 893e
000003c0: a77b 483e 34ef 8b3e 9356 93bd 4401 653e
000003d0: 0cff 90be cc7d 143e 10e1 4bbe 66a4 073e
000003e0: 4547 583e 2569 75be a6bc 923d 534a 41be
000003f0: f2f4 853e 5e14 8dbe 1bdd af3e 4292 063e
0.47922716 -0.46386445 0.20314741 -0.42005265 0.5105711 -0.45803857 -0.36336556 0.065393195
0.45394316 -0.3407475 0.08062359 0.42770085 0.09559909 -0.034566507 -0.23850414 0.17792644
-0.41682807 0.43625656 -0.32582814 0.23879893 0.3585961 0.2618211 0.38786373 -0.4481667
-0.01868724 0.21584128 -0.42132536 -0.238065 -0.43827203 0.40455225 0.48735976 0.24163559
-0.48916623 0.43583053 0.45997298 -0.22266035 -0.4438249 -0.05191227 0.19021975 -0.29697484
-0.47427198 -0.43506056 -0.44689542 -0.5330709 0.4538492 -0.19368552 0.4759489 0.5329652
0.06055963 0.4653871 -0.09344382 0.5113036 -0.36332795 0.31208876 -0.076143965 0.008030816
0.41227946 -0.35683912 0.2768347 -0.42111564 0.3893623 -0.45892075 0.4435212 -0.040372893
0.17268585 -0.1618788 0.09018409 -0.16343702 0.20201077 -0.1897557 -0.18967424 -0.18541685
0.19248773 -0.14559768 -0.10996189 0.14800265 0.23627248 -0.16966861 -0.12422165 0.17799112
-0.1858317 0.18155766 -0.17199123 0.13197146 0.19266145 0.20058675 0.18299763 -0.18156311
-0.056565136 0.19095397 -0.21486516 -0.2124017 -0.19925049 0.16768922 0.19064991 0.16651037
-0.20072062 0.19252683 0.20518233 -0.07994023 -0.11560815 -0.09835962 0.09610904 -0.18654972
-0.15054035 -0.15718423 -0.18228966 -0.19333942 0.18968974 -0.13300681 0.2013967 0.18848695
0.1351233 0.19863446 -0.013706008 0.19674115 -0.18667042 0.10475556 -0.12693408 0.091954455
0.17278501 -0.20284821 0.0563826 -0.12442975 0.17625065 -0.18208927 0.22792569 0.05598795
0.12079656 -0.09778892 0.023316791 -0.11357192 0.12502703 -0.12402179 -0.13871935 0.023945859
0.10747214 -0.06691282 0.06289718 0.09624235 0.0065655215 -0.0016738023 -0.049826704 0.027647318
-0.09956547 0.1446454 -0.084642634 0.09892636 0.09908432 0.075325064 0.11410904 -0.10353991
0.02289739 0.058339465 -0.10628755 -0.09892437 -0.12666933 0.11025366 0.13006899 0.057628658
-0.10806905 0.09370188 0.11129379 -0.058964558 -0.11945739 -0.05315774 0.0662609 -0.10046735
-0.122423746 -0.101684324 -0.10644671 -0.1413131 0.11785548 -0.061811194 0.100298576 0.13317943
0.015085869 0.116161086 -0.0011280366 0.14208111 -0.12422357 0.09607749 -0.034330882 0.04519267
0.10439427 -0.09331351 0.11280788 -0.10790085 0.13839449 -0.11977168 0.1217876 -0.04613669
0.23549023 -0.25786597 0.13677256 -0.22112629 0.26040992 -0.27161044 -0.22914386 -0.25386614
0.25105453 -0.17901877 -0.16096386 0.22256343 0.2956158 -0.2080125 -0.20451385 0.2671512
-0.2775826 0.2873547 -0.2541467 0.13124767 0.27738187 0.2832507 0.22284527 -0.2522211
-0.11725759 0.27675733 -0.3002506 -0.27921888 -0.23788461 0.18954305 0.26839975 0.2954992
-0.2597482 0.25051296 0.28517684 -0.0783847 -0.17709881 -0.13342595 0.12897904 -0.23364583
-0.23694618 -0.26780117 -0.23867519 -0.27874923 0.25589576 -0.18562339 0.2681612 0.2692231
0.1957842 0.27330935 -0.07194247 0.22363764 -0.28319585 0.14501113 -0.19910073 0.13246307
0.21120937 -0.2396589 0.07164888 -0.18876009 0.2616344 -0.275546 0.34348378 0.1314173
