data/BPR/bpr_model.pt (torch, 673572 bytes, 2 tensors)

user_emb.weight f4 [943, 64]
00000000: c0cd 113e a053 143e 1667 23bc 7a58 ed3d
00000010: 37f3 70bd 0e4f 253e 263c 2ebe 34ff 003e
00000020: 32ba 1d3e 56c0 38bc 919c e23d 403f 0cbe
00000030: 7ca7 1bbe 4b2c 0dbe 0ccf 233e 606a 2dbd
00000040: a60c 233e 9536 fdbd 3fcd 603c d252 2abe
00000050: 4f42 673d 0860 11be 21cc 10be 49e2 2d3e
00000060: 7259 273e 64c6 10be 4acb 28be 4861 1abe
00000070: 0084 ab36 398b 233e 072c 073e 82ae 063e
00000080: 88f4 eb3d 0873 2abe ae75 8bbd 2dc9 1b3e
00000090: 6cbe 123e 704a 10be d2a8 253e 8977 873d
000000a0: fbaa 2dbe 0e8d a6bc 0a9f 973d 42e0 0f3e
000000b0: 3274 0fbe 5db2 0fbe f4da 363e 5889 253e
000000c0: 9d9a 26be 3684 2dbe 877f 22be 8068 05be
000000d0: 13b7 003e 366d 253e 5c2b 223e 01ec 22be
000000e0: d1d4 19be 77ee 26be d39d 29be 4b08 1bbe
000000f0: 7206 253e c298 1ebe 0941 1d3e 97d9 333d
00000100: c7b7 d6bd e81b f83d 0781 993c 66f3 0e3e
00000110: 7ea0 193e 8b34 263e c453 90bd c7ff 453e
00000120: 5338 263c e963 2c3e 58c6 a4bd e69a 37be
00000130: 7a54 3abe 4820 c3bd b390 1d3e e7e0 b1bd
00000140: 4a04 05be a06e 0dbe bde1 ed3d 3eaa 14be
00000150: 9ff3 31be 659b 24be d8d3 21be 0a50 303e
00000160: d33f d03d 1319 10be 2b6d d2bd 7d66 2dbe
00000170: b557 bbbd 277a 3e3e 5071 093e 2661 2e3e
00000180: ebde 2f3e 13ce 65bd a03a c0bd 3c58 323e
00000190: 13f5 2e3e 9b47 03be ee0f 073e 11e3 dd3d
000001a0: 15c8 0abe b5ea 553e 5468 243e 6446 f13d
000001b0: 4d12 a0bd cb43 36be 14d9 89bc d858 2b3e
000001c0: a325 1bbe 4335 963d f366 903d 83fe 153e
000001d0: aa49 20be 7fc2 fe3d 77ff 2c3e 6cd3 17be
000001e0: d7e2 1cbe 90ad 8fbd 07d7 0b3e a79c 0bbe
000001f0: 38c1 863b 6c35 b6bd a85d 963d 944d 2a3e
00000200: 3fcc f9bd 3eeb ce3b 0ad0 63bc 5dc6 b03d
00000210: 0dfa bd3d 0b21 c93d 5a02 cc3c 7f75 0b3e
00000220: aee3 8cbd bb94 0d3e faaa c3bd 92c1 ccbd
00000230: 02e3 e6bd 824a 563c 0ab1 913d cbfd e3bd
00000240: ff60 0ebe 5f5f b4bd 9d20 613d 13a8 4cbd
00000250: 2d43 15be c90a c8bd 7d41 efbd 1ece ac3d
00000260: fff6 0e3d b1dc 1dbd e829 3c3c 8244 e7bd
00000270: 14e3 c3bd 441c ea3d 0599 bf3d 4148 093e
00000280: 51b5 173e eb68 853d 986b 9fbc 673b be3d
00000290: 054e eb3d 0a47 b7bc a555 1b3d d66b 113d
000002a0: b260 28bd 3686 2c3e 9225 103e d029 813d
000002b0: 930b 0f3d 04fa ebbd 1780 d1bd f7ae d23d
000002c0: ba50 b7bd c7d8 ef3d 1262 c53d 5627 293e
000002d0: 0698 10be de7f f03c 5e78 e33d e2b7 b4bd
000002e0: feae 8fbd 10d3 5a3d 0b61 253e 7193 62bd
000002f0: dd11 9cbd d790 803b 3d82 57bc 4151 ca3d
00000300: 4535 8cbd 4829 5a3d 7075 133d ae5b a93d
00000310: 2a6d 7a3d 918d c43d e852 12bd fafb e43d
00000320: 2061 dabc 55fc bb3d 5ce7 8fbd fe96 c1bd
00000330: b468 dabd 717b 1cbd 1b4d b23d 9bf2 cebd
00000340: 5fd7 91bd cbcb b4bd 9874 463d 1923 98bd
00000350: b37d babd 7445 c1bd ab6e dabd fa9a b73d
00000360: dce7 873d 2eb8 8abd 42ae 41bd 1665 ddbd
00000370: 2c44 b2bd ed60 d43d 5417 bf3d 3ac0 db3d
00000380: c2b1 fa3d 8c03 a13b 75bf 08bd f267 c23d
00000390: 4b2c d03d e4ad 44bd 4ce0 8e3d fcb7 283d
000003a0: bad7 92bd 3e11 fa3d 0940 e53d f22c 9f3d
000003b0: 5a4b d8bc 7edb cfbd d34d 2dbd a550 ce3d
000003c0: ff40 b6bd 7619 3e3d 3dd5 3a3d 5fcf d53d
000003d0: 325d c0bd 049c 793d ccb1 d73d 1709 bcbd
000003e0: d757 9cbd 6175 b5bb 2f30 c13d 57ec 9bbd
000003f0: ad91 a2bc 597c 35bd 05a5 293d d156 7d3d
0.14238644 0.14485025 -0.009973308 0.11589141 -0.058825698 0.16143438 -0.17015132 0.12597352
0.15403059 -0.011276325 0.11065019 -0.13696003 -0.15200609 -0.13786428 0.15996951 -0.042337775
0.15922794 -0.12363926 0.0137208095 -0.16633156 0.05645972 -0.1419679 -0.14140369 0.16980852
0.16342714 -0.1413818 -0.16483799 -0.15076172 5.111564e-06 0.15971078 0.13200389 0.13152507
0.1152125 -0.16645443 -0.06809555 0.15213461 0.14330453 -0.14090896 0.16177681 0.066145964
-0.16959755 -0.020330932 0.07403381 0.14050391 -0.14009169 -0.14032884 0.17856961 0.16165674
-0.16269918 -0.16944966 -0.1586896 -0.13028145 0.12569837 0.16154942 0.15836853 -0.15910341
-0.1502259 -0.16301905 -0.16564111 -0.15139882 0.1611574 -0.1548796 0.1535684 0.04390868
-0.104842715 0.12114698 0.018738283 0.13960037 0.15002629 0.16230981 -0.07047227 0.19335853
0.010145265 0.16834988 -0.080456436 -0.17930183 -0.18196288 -0.095276415 0.1538723 -0.08685475
-0.12989917 -0.13811731 0.11615322 -0.14518067 -0.1737809 -0.16074903 -0.15803468 0.17218032
0.101684235 -0.14072065 -0.102747284 -0.16933627 -0.09147588 0.18601285 0.13422132 0.17029247
0.1717488 -0.05610473 -0.09386182 0.17416471 0.17085676 -0.12820284 0.1318967 0.10834325
-0.13552888 0.20890315 0.16055423 0.11781004 -0.078159906 -0.17799298 -0.016827144 0.1673311
-0.15151076 0.073343776 0.07050886 0.1464787 -0.156531 0.12439441 0.16894327 -0.14826745
-0.15320908 -0.07015526 0.13656245 -0.13633977 0.004112389 -0.08896908 0.07342082 0.16631156
-0.1219716 0.006314664 -0.013904581 0.08631585 0.09276209 0.098207556 0.024903465 0.1361904
-0.06879364 0.13826267 -0.095540956 -0.09997858 -0.11273767 0.0130792875 0.07113846 -0.111323915
-0.13904189 -0.08807253 0.054962743 -0.049964976 -0.14576407 -0.09767682 -0.11682413 0.08437751
0.034903523 -0.038540546 0.011484601 -0.11292364 -0.09564796 0.114311725 0.09355358 0.13406469
0.1481526 0.06514152 -0.019460484 0.09288674 0.114894904 -0.022372741 0.037923474 0.03550323
-0.04110784 0.16848072 0.14076832 0.06306803 0.034923147 -0.11522296 -0.10229509 0.10287278
-0.08950944 0.11711269 0.09637846 0.16518912 -0.14120492 0.029357847 0.111069426 -0.08824135
-0.07015799 0.05342394 0.161503 -0.055316392 -0.07620595 0.0039235163 -0.01315361 0.09878779
-0.06846098 0.053262025 0.03600067 0.0826944 0.061139263 0.09597314 -0.035723597 0.11180873
-0.026657641 0.09178988 -0.0702655 -0.094526276 -0.10664502 -0.03820366 0.08706113 -0.10104867
-0.07121157 -0.08827933 0.048451036 -0.07428569 -0.091060065 -0.09437075 -0.106656395 0.08965106
0.066360205 -0.06773411 -0.047285326 -0.10810296 -0.08704409 0.103700496 0.09330621 0.10730024
0.12240936 0.004913753 -0.033385713 0.09492482 0.10164698 -0.048017398 0.06976375 0.041191086
-0.07170053 0.1221032 0.11193854 0.077722445 -0.026403118 -0.10149287 -0.042310547 0.100739755
-0.08899116 0.046411 0.045613516 0.104399435 -0.093927756 0.060939804 0.10531959 -0.09181421
-0.076339416 -0.0055376743 0.094330184 -0.076134376 -0.019844854 -0.04430804 0.04141714 0.061850373

item_emb.weight f4 [1682, 64]
00000000: 127b 883d 1092 b23e bf45 393e c67e 913e
00000010: 7a13 e73d 7261 c63e b39d 84be 9d68 ce3e
00000020: d134 3a3e aa1a 2e3e 8633 1bbd 4541 cfbe
00000030: 706e d7be 6c02 a2be d22d d13e 003b 65be
00000040: 98e3 a43d 7bf5 b2be 747e 3c3e 579d bdbe
00000050: 08ce c4bd adf9 b9be 9459 c1be ca24 d73e
00000060: 68fe 993e 2781 bdbe b57d a5be 786a dabe
00000070: 9767 39be 78fb ea3e 3c74 a43e 3125 a53e
00000080: cbb6 b43e 7c88 96be c9c1 09be 65c3 cf3e
00000090: 681b c13e 55cd 9dbe 0d77 bf3e de7a 553e
000000a0: f013 c2be 2c3d 903e ee94 953e aedf 9d3e
000000b0: 8296 95be 7a7d cdbe b90a 5f3e e62e c93e
000000c0: 3b30 c2be 7f84 3ebe e4cd fbbd 8637 bd3b
000000d0: 7417 75bd 4200 b43e 4ab3 c43e 2254 c6be
000000e0: 2c45 b7be 407c 9abe 3efb 66bd 938a b2be
000000f0: 5102 4c3e 2ca3 8ebe 38f2 8b3e c5c9 db3d
00000100: 82f0 5e3e d4f8 083e ba8e 713e 977e c93d
00000110: 23ff 49be 6a91 0d3e ac70 2fbe 5633 7d3d
00000120: 38a3 173e 1cf0 17be 4972 aa3d e0e2 bcbd
00000130: 55d5 14be 59df f2bd eb8a 093e c1ac 3abe
00000140: d029 7d3e 8c25 fdbd b641 1cbd 362d 19be
00000150: 5e7b 723e e99c b6bd 2b93 e5bd 5735 df3d
00000160: b2d0 213e 356a e5bd c98f ffbd d2e4 0dbe
00000170: 2853 23be d08c bb3d 0825 143e ede9 cd3d
00000180: df0b f63d b6c1 29be 1eec a33d f75d ec3d
00000190: e4e7 f33d 3157 4abd d30c fc3d 4657 8d3c
000001a0: d9a6 3bbe 3cf0 1bbe a45f d63d 47ae 103e
000001b0: fdc0 01be dce5 bfbd 6fef 423e f79e 223e
000001c0: 20c0 04be c4bb 63be 9b93 47be df6d 56be
000001d0: c23c 563e 3b56 fb3d 90e3 f33d f8aa f6bd
000001e0: 0940 c3bd ff48 0dbe 69c7 7cbe aee4 13be
000001f0: 3336 333e 6539 f0bd 5700 203e 382c 91be
00000200: 296a 603c 7d79 fa3d 6980 503e be2f 8d3d
00000210: 847c da3c 7f93 b73d d763 68bd 650a c73d
00000220: 9685 173d f6f6 b83c ebf9 93bd 46a5 d1bd
00000230: dc6c c1bd 800c c9bd a945 a43d 541a c0bd
00000240: f2ba 2a3d a31a f2bd abc5 973d b15e b1bd
00000250: 4a80 cd3c e3d2 82bd b2f2 a9bd d6d2 cb3d
00000260: af12 c13d f4a4 0cbe 5d3f ddbd a562 c3bd
00000270: 2fbb 3abe ca94 a53d d73a e23d 6dc7 553d
00000280: 9c0e c83d ba85 ccbd 883f 6bbd 456a c73d
00000290: f8de 9a3d 484b 54bd 1d29 9d3d 88f1 de3d
000002a0: f75b 06be 8d29 873d b887 db3d 87c3 b63d
000002b0: d203 d0bd 7d7e 03be ded2 7c3d 15de de3d
000002c0: 51be 86bd a568 7ebd e25a 5b3a c3e8 c7ba
000002d0: 5f4f dabc 4c02 b23d bf06 a63d 8f5b 97bd
000002e0: 8b81 dabd 66f0 b1bd 7368 97bc 0c54 cbbd
000002f0: 9319 493d 7ec4 e3bd 587c 8c3d f18b 6bbd
00000300: ef5b 943e daf6 803e adbf ba3d af3b 453e
00000310: f480 5cbe 1108 7f3e cfb1 86be 9565 293e
00000320: 79c2 853e adfc acbd 8c9c 383e 57cf 3abe
00000330: 2eab 66be 2e01 7abe 67a3 6d3e b427 1cbe
00000340: 937e 9e3e 0466 5abe 2b55 1fbd 7c9f 87be
00000350: c14d 5d3e e449 45be 0c14 58be ef0d 6a3e
00000360: 0a46 8a3e 9a73 66be a100 81be 3e54 5dbe
00000370: 0230 75bd 5a63 473e df92 603e e308 4b3e
00000380: 3120 243e d611 8bbe bf5d a6bc 659c 593e
00000390: a4f7 603e a4b2 28be c7a4 713e ead9 7b3d
000003a0: 3bb4 85be bae8 02be 032d dc3d c2f9 6d3e
000003b0: 7098 6dbe 30e3 40be ef7e 913e 32b8 833e
000003c0: 2593 63be caee 9cbe 151a 99be 5e38 90be
000003d0: e4cf 8b3e b715 663e 3924 583e 4ab1 74be
000003e0: 2479 4abe 4566 80be a38f a1be 187c 88be
000003f0: 85f8 8a3e 6d6b 63be 518f 8a3e c2aa 12be
0.06664099 0.34877062 0.18093012 0.28417033 0.11283012 0.3874622 -0.25901565 0.4031419
0.1818421 0.17002359 -0.037890933 -0.40479484 -0.42076445 -0.31642473 0.4085527 -0.22385788
0.080512226 -0.34952912 0.18407613 -0.37034103 -0.0960961 -0.363233 -0.37763655 0.42020255
0.3007691 -0.37012598 -0.3232247 -0.42659354 -0.18105923 0.4589498 0.3211993 0.32254937
0.3529571 -0.29401004 -0.1345283 0.40578762 0.37716222 -0.30820718 0.37395516 0.20847651
-0.37905836 0.2817167 0.29215187 0.30834717 -0.2921639 -0.40134794 0.21781434 0.39293593
-0.37927422 -0.18605231 -0.1229513 0.005774441 -0.05983682 0.35156447 0.38418037 -0.38736063
-0.3579496 -0.3017292 -0.056391947 -0.3487135 0.19922759 -0.27858865 0.27333236 0.10731844
0.21771434 0.1337617 0.23589602 0.09838598 -0.19726233 0.13825002 -0.17132825 0.061816536
0.14808357 -0.14837688 0.083225794 -0.092229605 -0.14534505 -0.118590064 0.13431899 -0.18229963
0.24722981 -0.12360677 -0.038148604 -0.14958653 0.23679873 -0.08916647 -0.11209711 0.10898846
0.15802267 -0.11201898 -0.12478597 -0.1385682 -0.1594969 0.09157717 0.14467251 0.100543834
0.12013983 -0.16577801 0.0800402 0.1154136 0.11909464 -0.04939956 0.123071335 0.01725353
-0.18325366 -0.15228361 0.10467461 0.14128982 -0.12671275 -0.09370014 0.19036649 0.15880953
-0.12963915 -0.22239596 -0.19489901 -0.2094035 0.20921615 0.122723065 0.119086385 -0.120443285
-0.09533698 -0.13797377 -0.24685444 -0.14442703 0.17501144 -0.11729697 0.1562513 -0.2835405
0.013697186 0.12230203 0.20361485 0.06893872 0.026670702 0.089636795 -0.05673584 0.097187795
0.03699263 0.022578698 -0.072254024 -0.102366015 -0.094445914 -0.09816837 0.08021099 -0.09380022
0.04168219 -0.11821487 0.07410749 -0.08660639 0.025085587 -0.0638788 -0.082982436 0.09952323
0.09427392 -0.137348 -0.10803101 -0.09540299 -0.18235467 0.0808502 0.11046379 0.05219214
0.097684115 -0.09986444 -0.057433635 0.09737066 0.07562059 -0.051829606 0.07673857 0.10885912
-0.1312102 0.06599722 0.10719246 0.08924013 -0.10156979 -0.1284122 0.061724536 0.108822025
-0.06579269 -0.062111516 0.00083677296 -0.0015251864 -0.026649175 0.08691844 0.081067555 -0.0739051
-0.106692396 -0.086884305 -0.018482422 -0.0992814 0.049096655 -0.11121462 0.06859654 -0.057506505
0.2897639 0.25188333 0.091185905 0.19261049 -0.21533567 0.24905421 -0.26307532 0.16542657
0.26124933 -0.084466316 0.18028468 -0.18243156 -0.22526237 -0.24414513 0.23206864 -0.1524952
0.30955943 -0.21327978 -0.038899582 -0.26488864 0.21611692 -0.19266468 -0.21101397 0.22856878
0.2700656 -0.22505036 -0.25195792 -0.21614167 -0.059860237 0.19471493 0.21931027 0.19827609
0.16027905 -0.27162045 -0.020308373 0.21251066 0.21969467 -0.16474396 0.23598014 0.061487116
-0.26114067 -0.1278409 0.10750773 0.23239806 -0.23202682 -0.18836665 0.28417155 0.25726467
-0.222241 -0.30650932 -0.29902712 -0.28168005 0.27307045 0.22469221 0.21107568 -0.23895755
-0.19772774 -0.25078025 -0.315549 -0.26657176 0.2714273 -0.22208948 0.27062467 -0.14322951
